<?xml version="1.0" ?>
<net name="torch-jit-export" version="11">
	<layers>
		<layer id="116" name="images" type="Parameter" version="opset1">
			<data element_type="f32" shape="1,3,640,640"/>
			<rt_info>
				<attribute name="fused_names" value="images" version="0"/>
			</rt_info>
			<output>
				<port id="0" names="images" precision="FP32">
					<dim>1</dim>
					<dim>3</dim>
					<dim>640</dim>
					<dim>640</dim>
					<rt_info/>
				</port>
			</output>
		</layer>
		<layer id="0" name="5586559019942" type="Const" version="opset1">
			<data element_type="f32" offset="0" shape="1,1,1,1" size="4"/>
			<output>
				<port id="0" precision="FP32">
					<dim>1</dim>
					<dim>1</dim>
					<dim>1</dim>
					<dim>1</dim>
				</port>
			</output>
		</layer>
		<layer id="1" name="5587559120197" type="Const" version="opset1">
			<data element_type="f32" offset="4" shape="1,1,1,1" size="4"/>
			<output>
				<port id="0" precision="FP32">
					<dim>1</dim>
					<dim>1</dim>
					<dim>1</dim>
					<dim>1</dim>
				</port>
			</output>
		</layer>
		<layer id="2" name="5588559218232" type="Const" version="opset1">
			<data element_type="f32" offset="0" shape="1,1,1,1" size="4"/>
			<output>
				<port id="0" precision="FP32">
					<dim>1</dim>
					<dim>1</dim>
					<dim>1</dim>
					<dim>1</dim>
				</port>
			</output>
		</layer>
		<layer id="3" name="5589559318901" type="Const" version="opset1">
			<data element_type="f32" offset="4" shape="1,1,1,1" size="4"/>
			<output>
				<port id="0" precision="FP32">
					<dim>1</dim>
					<dim>1</dim>
					<dim>1</dim>
					<dim>1</dim>
				</port>
			</output>
		</layer>
		<layer id="4" name="4026403018757" type="Const" version="opset1">
			<data element_type="f32" offset="0" shape="1,1,1,1" size="4"/>
			<output>
				<port id="0" precision="FP32">
					<dim>1</dim>
					<dim>1</dim>
					<dim>1</dim>
					<dim>1</dim>
				</port>
			</output>
		</layer>
		<layer id="5" name="4027403118910" type="Const" version="opset1">
			<data element_type="f32" offset="8" shape="1,1,1,1" size="4"/>
			<output>
				<port id="0" precision="FP32">
					<dim>1</dim>
					<dim>1</dim>
					<dim>1</dim>
					<dim>1</dim>
				</port>
			</output>
		</layer>
		<layer id="6" name="4028403219060" type="Const" version="opset1">
			<data element_type="f32" offset="0" shape="1,1,1,1" size="4"/>
			<output>
				<port id="0" precision="FP32">
					<dim>1</dim>
					<dim>1</dim>
					<dim>1</dim>
					<dim>1</dim>
				</port>
			</output>
		</layer>
		<layer id="7" name="4029403318352" type="Const" version="opset1">
			<data element_type="f32" offset="8" shape="1,1,1,1" size="4"/>
			<output>
				<port id="0" precision="FP32">
					<dim>1</dim>
					<dim>1</dim>
					<dim>1</dim>
					<dim>1</dim>
				</port>
			</output>
		</layer>
		<layer id="8" name="5566557018454" type="Const" version="opset1">
			<data element_type="f32" offset="12" shape="1,1,1,1" size="4"/>
			<output>
				<port id="0" precision="FP32">
					<dim>1</dim>
					<dim>1</dim>
					<dim>1</dim>
					<dim>1</dim>
				</port>
			</output>
		</layer>
		<layer id="9" name="5567557118538" type="Const" version="opset1">
			<data element_type="f32" offset="16" shape="1,1,1,1" size="4"/>
			<output>
				<port id="0" precision="FP32">
					<dim>1</dim>
					<dim>1</dim>
					<dim>1</dim>
					<dim>1</dim>
				</port>
			</output>
		</layer>
		<layer id="10" name="5568557219483" type="Const" version="opset1">
			<data element_type="f32" offset="12" shape="1,1,1,1" size="4"/>
			<output>
				<port id="0" precision="FP32">
					<dim>1</dim>
					<dim>1</dim>
					<dim>1</dim>
					<dim>1</dim>
				</port>
			</output>
		</layer>
		<layer id="11" name="5569557319477" type="Const" version="opset1">
			<data element_type="f32" offset="16" shape="1,1,1,1" size="4"/>
			<output>
				<port id="0" precision="FP32">
					<dim>1</dim>
					<dim>1</dim>
					<dim>1</dim>
					<dim>1</dim>
				</port>
			</output>
		</layer>
		<layer id="12" name="2446245020203" type="Const" version="opset1">
			<data element_type="f32" offset="20" shape="1,1,1,1" size="4"/>
			<output>
				<port id="0" precision="FP32">
					<dim>1</dim>
					<dim>1</dim>
					<dim>1</dim>
					<dim>1</dim>
				</port>
			</output>
		</layer>
		<layer id="13" name="2447245119933" type="Const" version="opset1">
			<data element_type="f32" offset="24" shape="1,1,1,1" size="4"/>
			<output>
				<port id="0" precision="FP32">
					<dim>1</dim>
					<dim>1</dim>
					<dim>1</dim>
					<dim>1</dim>
				</port>
			</output>
		</layer>
		<layer id="14" name="2448245220413" type="Const" version="opset1">
			<data element_type="f32" offset="20" shape="1,1,1,1" size="4"/>
			<output>
				<port id="0" precision="FP32">
					<dim>1</dim>
					<dim>1</dim>
					<dim>1</dim>
					<dim>1</dim>
				</port>
			</output>
		</layer>
		<layer id="15" name="2449245319690" type="Const" version="opset1">
			<data element_type="f32" offset="24" shape="1,1,1,1" size="4"/>
			<output>
				<port id="0" precision="FP32">
					<dim>1</dim>
					<dim>1</dim>
					<dim>1</dim>
					<dim>1</dim>
				</port>
			</output>
		</layer>
		<layer id="16" name="3406341019780" type="Const" version="opset1">
			<data element_type="f32" offset="0" shape="1,1,1,1" size="4"/>
			<output>
				<port id="0" precision="FP32">
					<dim>1</dim>
					<dim>1</dim>
					<dim>1</dim>
					<dim>1</dim>
				</port>
			</output>
		</layer>
		<layer id="17" name="3407341119066" type="Const" version="opset1">
			<data element_type="f32" offset="28" shape="1,1,1,1" size="4"/>
			<output>
				<port id="0" precision="FP32">
					<dim>1</dim>
					<dim>1</dim>
					<dim>1</dim>
					<dim>1</dim>
				</port>
			</output>
		</layer>
		<layer id="18" name="3408341218295" type="Const" version="opset1">
			<data element_type="f32" offset="0" shape="1,1,1,1" size="4"/>
			<output>
				<port id="0" precision="FP32">
					<dim>1</dim>
					<dim>1</dim>
					<dim>1</dim>
					<dim>1</dim>
				</port>
			</output>
		</layer>
		<layer id="19" name="3409341319855" type="Const" version="opset1">
			<data element_type="f32" offset="28" shape="1,1,1,1" size="4"/>
			<output>
				<port id="0" precision="FP32">
					<dim>1</dim>
					<dim>1</dim>
					<dim>1</dim>
					<dim>1</dim>
				</port>
			</output>
		</layer>
		<layer id="20" name="2796280019681" type="Const" version="opset1">
			<data element_type="f32" offset="0" shape="1,1,1,1" size="4"/>
			<output>
				<port id="0" precision="FP32">
					<dim>1</dim>
					<dim>1</dim>
					<dim>1</dim>
					<dim>1</dim>
				</port>
			</output>
		</layer>
		<layer id="21" name="2797280118925" type="Const" version="opset1">
			<data element_type="f32" offset="32" shape="1,1,1,1" size="4"/>
			<output>
				<port id="0" precision="FP32">
					<dim>1</dim>
					<dim>1</dim>
					<dim>1</dim>
					<dim>1</dim>
				</port>
			</output>
		</layer>
		<layer id="22" name="2798280220341" type="Const" version="opset1">
			<data element_type="f32" offset="0" shape="1,1,1,1" size="4"/>
			<output>
				<port id="0" precision="FP32">
					<dim>1</dim>
					<dim>1</dim>
					<dim>1</dim>
					<dim>1</dim>
				</port>
			</output>
		</layer>
		<layer id="23" name="2799280319876" type="Const" version="opset1">
			<data element_type="f32" offset="32" shape="1,1,1,1" size="4"/>
			<output>
				<port id="0" precision="FP32">
					<dim>1</dim>
					<dim>1</dim>
					<dim>1</dim>
					<dim>1</dim>
				</port>
			</output>
		</layer>
		<layer id="24" name="5696570019324" type="Const" version="opset1">
			<data element_type="f32" offset="36" shape="1,1,1,1" size="4"/>
			<output>
				<port id="0" precision="FP32">
					<dim>1</dim>
					<dim>1</dim>
					<dim>1</dim>
					<dim>1</dim>
				</port>
			</output>
		</layer>
		<layer id="25" name="5697570119981" type="Const" version="opset1">
			<data element_type="f32" offset="40" shape="1,1,1,1" size="4"/>
			<output>
				<port id="0" precision="FP32">
					<dim>1</dim>
					<dim>1</dim>
					<dim>1</dim>
					<dim>1</dim>
				</port>
			</output>
		</layer>
		<layer id="26" name="5698570219306" type="Const" version="opset1">
			<data element_type="f32" offset="36" shape="1,1,1,1" size="4"/>
			<output>
				<port id="0" precision="FP32">
					<dim>1</dim>
					<dim>1</dim>
					<dim>1</dim>
					<dim>1</dim>
				</port>
			</output>
		</layer>
		<layer id="27" name="5699570318334" type="Const" version="opset1">
			<data element_type="f32" offset="40" shape="1,1,1,1" size="4"/>
			<output>
				<port id="0" precision="FP32">
					<dim>1</dim>
					<dim>1</dim>
					<dim>1</dim>
					<dim>1</dim>
				</port>
			</output>
		</layer>
		<layer id="28" name="5546555019192" type="Const" version="opset1">
			<data element_type="f32" offset="44" shape="1,1,1,1" size="4"/>
			<output>
				<port id="0" precision="FP32">
					<dim>1</dim>
					<dim>1</dim>
					<dim>1</dim>
					<dim>1</dim>
				</port>
			</output>
		</layer>
		<layer id="29" name="5547555120158" type="Const" version="opset1">
			<data element_type="f32" offset="48" shape="1,1,1,1" size="4"/>
			<output>
				<port id="0" precision="FP32">
					<dim>1</dim>
					<dim>1</dim>
					<dim>1</dim>
					<dim>1</dim>
				</port>
			</output>
		</layer>
		<layer id="30" name="5548555219153" type="Const" version="opset1">
			<data element_type="f32" offset="44" shape="1,1,1,1" size="4"/>
			<output>
				<port id="0" precision="FP32">
					<dim>1</dim>
					<dim>1</dim>
					<dim>1</dim>
					<dim>1</dim>
				</port>
			</output>
		</layer>
		<layer id="31" name="5549555318595" type="Const" version="opset1">
			<data element_type="f32" offset="48" shape="1,1,1,1" size="4"/>
			<output>
				<port id="0" precision="FP32">
					<dim>1</dim>
					<dim>1</dim>
					<dim>1</dim>
					<dim>1</dim>
				</port>
			</output>
		</layer>
		<layer id="32" name="2756276019465" type="Const" version="opset1">
			<data element_type="f32" offset="52" shape="1,1,1,1" size="4"/>
			<output>
				<port id="0" precision="FP32">
					<dim>1</dim>
					<dim>1</dim>
					<dim>1</dim>
					<dim>1</dim>
				</port>
			</output>
		</layer>
		<layer id="33" name="2757276120329" type="Const" version="opset1">
			<data element_type="f32" offset="56" shape="1,1,1,1" size="4"/>
			<output>
				<port id="0" precision="FP32">
					<dim>1</dim>
					<dim>1</dim>
					<dim>1</dim>
					<dim>1</dim>
				</port>
			</output>
		</layer>
		<layer id="34" name="2758276218478" type="Const" version="opset1">
			<data element_type="f32" offset="52" shape="1,1,1,1" size="4"/>
			<output>
				<port id="0" precision="FP32">
					<dim>1</dim>
					<dim>1</dim>
					<dim>1</dim>
					<dim>1</dim>
				</port>
			</output>
		</layer>
		<layer id="35" name="2759276318124" type="Const" version="opset1">
			<data element_type="f32" offset="56" shape="1,1,1,1" size="4"/>
			<output>
				<port id="0" precision="FP32">
					<dim>1</dim>
					<dim>1</dim>
					<dim>1</dim>
					<dim>1</dim>
				</port>
			</output>
		</layer>
		<layer id="36" name="3566357018658" type="Const" version="opset1">
			<data element_type="f32" offset="60" shape="1,1,1,1" size="4"/>
			<output>
				<port id="0" precision="FP32">
					<dim>1</dim>
					<dim>1</dim>
					<dim>1</dim>
					<dim>1</dim>
				</port>
			</output>
		</layer>
		<layer id="37" name="3567357119102" type="Const" version="opset1">
			<data element_type="f32" offset="64" shape="1,1,1,1" size="4"/>
			<output>
				<port id="0" precision="FP32">
					<dim>1</dim>
					<dim>1</dim>
					<dim>1</dim>
					<dim>1</dim>
				</port>
			</output>
		</layer>
		<layer id="38" name="3568357220254" type="Const" version="opset1">
			<data element_type="f32" offset="60" shape="1,1,1,1" size="4"/>
			<output>
				<port id="0" precision="FP32">
					<dim>1</dim>
					<dim>1</dim>
					<dim>1</dim>
					<dim>1</dim>
				</port>
			</output>
		</layer>
		<layer id="39" name="3569357318085" type="Const" version="opset1">
			<data element_type="f32" offset="64" shape="1,1,1,1" size="4"/>
			<output>
				<port id="0" precision="FP32">
					<dim>1</dim>
					<dim>1</dim>
					<dim>1</dim>
					<dim>1</dim>
				</port>
			</output>
		</layer>
		<layer id="40" name="3806381019513" type="Const" version="opset1">
			<data element_type="f32" offset="68" shape="1,1,1,1" size="4"/>
			<output>
				<port id="0" precision="FP32">
					<dim>1</dim>
					<dim>1</dim>
					<dim>1</dim>
					<dim>1</dim>
				</port>
			</output>
		</layer>
		<layer id="41" name="3807381118265" type="Const" version="opset1">
			<data element_type="f32" offset="72" shape="1,1,1,1" size="4"/>
			<output>
				<port id="0" precision="FP32">
					<dim>1</dim>
					<dim>1</dim>
					<dim>1</dim>
					<dim>1</dim>
				</port>
			</output>
		</layer>
		<layer id="42" name="3808381219435" type="Const" version="opset1">
			<data element_type="f32" offset="68" shape="1,1,1,1" size="4"/>
			<output>
				<port id="0" precision="FP32">
					<dim>1</dim>
					<dim>1</dim>
					<dim>1</dim>
					<dim>1</dim>
				</port>
			</output>
		</layer>
		<layer id="43" name="3809381319675" type="Const" version="opset1">
			<data element_type="f32" offset="72" shape="1,1,1,1" size="4"/>
			<output>
				<port id="0" precision="FP32">
					<dim>1</dim>
					<dim>1</dim>
					<dim>1</dim>
					<dim>1</dim>
				</port>
			</output>
		</layer>
		<layer id="44" name="3116312019516" type="Const" version="opset1">
			<data element_type="f32" offset="76" shape="1,1,1,1" size="4"/>
			<output>
				<port id="0" precision="FP32">
					<dim>1</dim>
					<dim>1</dim>
					<dim>1</dim>
					<dim>1</dim>
				</port>
			</output>
		</layer>
		<layer id="45" name="3117312119147" type="Const" version="opset1">
			<data element_type="f32" offset="80" shape="1,1,1,1" size="4"/>
			<output>
				<port id="0" precision="FP32">
					<dim>1</dim>
					<dim>1</dim>
					<dim>1</dim>
					<dim>1</dim>
				</port>
			</output>
		</layer>
		<layer id="46" name="3118312219570" type="Const" version="opset1">
			<data element_type="f32" offset="76" shape="1,1,1,1" size="4"/>
			<output>
				<port id="0" precision="FP32">
					<dim>1</dim>
					<dim>1</dim>
					<dim>1</dim>
					<dim>1</dim>
				</port>
			</output>
		</layer>
		<layer id="47" name="3119312318466" type="Const" version="opset1">
			<data element_type="f32" offset="80" shape="1,1,1,1" size="4"/>
			<output>
				<port id="0" precision="FP32">
					<dim>1</dim>
					<dim>1</dim>
					<dim>1</dim>
					<dim>1</dim>
				</port>
			</output>
		</layer>
		<layer id="48" name="3076308018961" type="Const" version="opset1">
			<data element_type="f32" offset="84" shape="1,1,1,1" size="4"/>
			<output>
				<port id="0" precision="FP32">
					<dim>1</dim>
					<dim>1</dim>
					<dim>1</dim>
					<dim>1</dim>
				</port>
			</output>
		</layer>
		<layer id="49" name="3077308119063" type="Const" version="opset1">
			<data element_type="f32" offset="88" shape="1,1,1,1" size="4"/>
			<output>
				<port id="0" precision="FP32">
					<dim>1</dim>
					<dim>1</dim>
					<dim>1</dim>
					<dim>1</dim>
				</port>
			</output>
		</layer>
		<layer id="50" name="3078308218703" type="Const" version="opset1">
			<data element_type="f32" offset="84" shape="1,1,1,1" size="4"/>
			<output>
				<port id="0" precision="FP32">
					<dim>1</dim>
					<dim>1</dim>
					<dim>1</dim>
					<dim>1</dim>
				</port>
			</output>
		</layer>
		<layer id="51" name="3079308318718" type="Const" version="opset1">
			<data element_type="f32" offset="88" shape="1,1,1,1" size="4"/>
			<output>
				<port id="0" precision="FP32">
					<dim>1</dim>
					<dim>1</dim>
					<dim>1</dim>
					<dim>1</dim>
				</port>
			</output>
		</layer>
		<layer id="52" name="3826383019126" type="Const" version="opset1">
			<data element_type="f32" offset="0" shape="1,1,1,1" size="4"/>
			<output>
				<port id="0" precision="FP32">
					<dim>1</dim>
					<dim>1</dim>
					<dim>1</dim>
					<dim>1</dim>
				</port>
			</output>
		</layer>
		<layer id="53" name="3827383119468" type="Const" version="opset1">
			<data element_type="f32" offset="92" shape="1,1,1,1" size="4"/>
			<output>
				<port id="0" precision="FP32">
					<dim>1</dim>
					<dim>1</dim>
					<dim>1</dim>
					<dim>1</dim>
				</port>
			</output>
		</layer>
		<layer id="54" name="3828383220269" type="Const" version="opset1">
			<data element_type="f32" offset="0" shape="1,1,1,1" size="4"/>
			<output>
				<port id="0" precision="FP32">
					<dim>1</dim>
					<dim>1</dim>
					<dim>1</dim>
					<dim>1</dim>
				</port>
			</output>
		</layer>
		<layer id="55" name="3829383319753" type="Const" version="opset1">
			<data element_type="f32" offset="92" shape="1,1,1,1" size="4"/>
			<output>
				<port id="0" precision="FP32">
					<dim>1</dim>
					<dim>1</dim>
					<dim>1</dim>
					<dim>1</dim>
				</port>
			</output>
		</layer>
		<layer id="56" name="2936294018820" type="Const" version="opset1">
			<data element_type="f32" offset="96" shape="1,1,1,1" size="4"/>
			<output>
				<port id="0" precision="FP32">
					<dim>1</dim>
					<dim>1</dim>
					<dim>1</dim>
					<dim>1</dim>
				</port>
			</output>
		</layer>
		<layer id="57" name="2937294120362" type="Const" version="opset1">
			<data element_type="f32" offset="100" shape="1,1,1,1" size="4"/>
			<output>
				<port id="0" precision="FP32">
					<dim>1</dim>
					<dim>1</dim>
					<dim>1</dim>
					<dim>1</dim>
				</port>
			</output>
		</layer>
		<layer id="58" name="2938294218583" type="Const" version="opset1">
			<data element_type="f32" offset="96" shape="1,1,1,1" size="4"/>
			<output>
				<port id="0" precision="FP32">
					<dim>1</dim>
					<dim>1</dim>
					<dim>1</dim>
					<dim>1</dim>
				</port>
			</output>
		</layer>
		<layer id="59" name="2939294319054" type="Const" version="opset1">
			<data element_type="f32" offset="100" shape="1,1,1,1" size="4"/>
			<output>
				<port id="0" precision="FP32">
					<dim>1</dim>
					<dim>1</dim>
					<dim>1</dim>
					<dim>1</dim>
				</port>
			</output>
		</layer>
		<layer id="60" name="5756576019123" type="Const" version="opset1">
			<data element_type="f32" offset="104" shape="1,1,1,1" size="4"/>
			<output>
				<port id="0" precision="FP32">
					<dim>1</dim>
					<dim>1</dim>
					<dim>1</dim>
					<dim>1</dim>
				</port>
			</output>
		</layer>
		<layer id="61" name="5757576118355" type="Const" version="opset1">
			<data element_type="f32" offset="8" shape="1,1,1,1" size="4"/>
			<output>
				<port id="0" precision="FP32">
					<dim>1</dim>
					<dim>1</dim>
					<dim>1</dim>
					<dim>1</dim>
				</port>
			</output>
		</layer>
		<layer id="62" name="5758576220389" type="Const" version="opset1">
			<data element_type="f32" offset="104" shape="1,1,1,1" size="4"/>
			<output>
				<port id="0" precision="FP32">
					<dim>1</dim>
					<dim>1</dim>
					<dim>1</dim>
					<dim>1</dim>
				</port>
			</output>
		</layer>
		<layer id="63" name="5759576318316" type="Const" version="opset1">
			<data element_type="f32" offset="8" shape="1,1,1,1" size="4"/>
			<output>
				<port id="0" precision="FP32">
					<dim>1</dim>
					<dim>1</dim>
					<dim>1</dim>
					<dim>1</dim>
				</port>
			</output>
		</layer>
		<layer id="64" name="5946595019267" type="Const" version="opset1">
			<data element_type="f32" offset="108" shape="1,1,1,1" size="4"/>
			<output>
				<port id="0" precision="FP32">
					<dim>1</dim>
					<dim>1</dim>
					<dim>1</dim>
					<dim>1</dim>
				</port>
			</output>
		</layer>
		<layer id="65" name="5947595120353" type="Const" version="opset1">
			<data element_type="f32" offset="112" shape="1,1,1,1" size="4"/>
			<output>
				<port id="0" precision="FP32">
					<dim>1</dim>
					<dim>1</dim>
					<dim>1</dim>
					<dim>1</dim>
				</port>
			</output>
		</layer>
		<layer id="66" name="5948595217980" type="Const" version="opset1">
			<data element_type="f32" offset="108" shape="1,1,1,1" size="4"/>
			<output>
				<port id="0" precision="FP32">
					<dim>1</dim>
					<dim>1</dim>
					<dim>1</dim>
					<dim>1</dim>
				</port>
			</output>
		</layer>
		<layer id="67" name="5949595319576" type="Const" version="opset1">
			<data element_type="f32" offset="112" shape="1,1,1,1" size="4"/>
			<output>
				<port id="0" precision="FP32">
					<dim>1</dim>
					<dim>1</dim>
					<dim>1</dim>
					<dim>1</dim>
				</port>
			</output>
		</layer>
		<layer id="68" name="4156416020143" type="Const" version="opset1">
			<data element_type="f32" offset="116" shape="1,1,1,1" size="4"/>
			<output>
				<port id="0" precision="FP32">
					<dim>1</dim>
					<dim>1</dim>
					<dim>1</dim>
					<dim>1</dim>
				</port>
			</output>
		</layer>
		<layer id="69" name="4157416119135" type="Const" version="opset1">
			<data element_type="f32" offset="120" shape="1,1,1,1" size="4"/>
			<output>
				<port id="0" precision="FP32">
					<dim>1</dim>
					<dim>1</dim>
					<dim>1</dim>
					<dim>1</dim>
				</port>
			</output>
		</layer>
		<layer id="70" name="4158416219177" type="Const" version="opset1">
			<data element_type="f32" offset="116" shape="1,1,1,1" size="4"/>
			<output>
				<port id="0" precision="FP32">
					<dim>1</dim>
					<dim>1</dim>
					<dim>1</dim>
					<dim>1</dim>
				</port>
			</output>
		</layer>
		<layer id="71" name="4159416318877" type="Const" version="opset1">
			<data element_type="f32" offset="120" shape="1,1,1,1" size="4"/>
			<output>
				<port id="0" precision="FP32">
					<dim>1</dim>
					<dim>1</dim>
					<dim>1</dim>
					<dim>1</dim>
				</port>
			</output>
		</layer>
		<layer id="72" name="3846385020068" type="Const" version="opset1">
			<data element_type="f32" offset="124" shape="1,1,1,1" size="4"/>
			<output>
				<port id="0" precision="FP32">
					<dim>1</dim>
					<dim>1</dim>
					<dim>1</dim>
					<dim>1</dim>
				</port>
			</output>
		</layer>
		<layer id="73" name="3847385119045" type="Const" version="opset1">
			<data element_type="f32" offset="128" shape="1,1,1,1" size="4"/>
			<output>
				<port id="0" precision="FP32">
					<dim>1</dim>
					<dim>1</dim>
					<dim>1</dim>
					<dim>1</dim>
				</port>
			</output>
		</layer>
		<layer id="74" name="3848385219951" type="Const" version="opset1">
			<data element_type="f32" offset="124" shape="1,1,1,1" size="4"/>
			<output>
				<port id="0" precision="FP32">
					<dim>1</dim>
					<dim>1</dim>
					<dim>1</dim>
					<dim>1</dim>
				</port>
			</output>
		</layer>
		<layer id="75" name="3849385318247" type="Const" version="opset1">
			<data element_type="f32" offset="128" shape="1,1,1,1" size="4"/>
			<output>
				<port id="0" precision="FP32">
					<dim>1</dim>
					<dim>1</dim>
					<dim>1</dim>
					<dim>1</dim>
				</port>
			</output>
		</layer>
		<layer id="76" name="2646265019423" type="Const" version="opset1">
			<data element_type="f32" offset="132" shape="1,1,1,1" size="4"/>
			<output>
				<port id="0" precision="FP32">
					<dim>1</dim>
					<dim>1</dim>
					<dim>1</dim>
					<dim>1</dim>
				</port>
			</output>
		</layer>
		<layer id="77" name="2647265119339" type="Const" version="opset1">
			<data element_type="f32" offset="136" shape="1,1,1,1" size="4"/>
			<output>
				<port id="0" precision="FP32">
					<dim>1</dim>
					<dim>1</dim>
					<dim>1</dim>
					<dim>1</dim>
				</port>
			</output>
		</layer>
		<layer id="78" name="2648265218310" type="Const" version="opset1">
			<data element_type="f32" offset="132" shape="1,1,1,1" size="4"/>
			<output>
				<port id="0" precision="FP32">
					<dim>1</dim>
					<dim>1</dim>
					<dim>1</dim>
					<dim>1</dim>
				</port>
			</output>
		</layer>
		<layer id="79" name="2649265318016" type="Const" version="opset1">
			<data element_type="f32" offset="136" shape="1,1,1,1" size="4"/>
			<output>
				<port id="0" precision="FP32">
					<dim>1</dim>
					<dim>1</dim>
					<dim>1</dim>
					<dim>1</dim>
				</port>
			</output>
		</layer>
		<layer id="80" name="3176318018784" type="Const" version="opset1">
			<data element_type="f32" offset="0" shape="1,1,1,1" size="4"/>
			<output>
				<port id="0" precision="FP32">
					<dim>1</dim>
					<dim>1</dim>
					<dim>1</dim>
					<dim>1</dim>
				</port>
			</output>
		</layer>
		<layer id="81" name="3177318118424" type="Const" version="opset1">
			<data element_type="f32" offset="140" shape="1,1,1,1" size="4"/>
			<output>
				<port id="0" precision="FP32">
					<dim>1</dim>
					<dim>1</dim>
					<dim>1</dim>
					<dim>1</dim>
				</port>
			</output>
		</layer>
		<layer id="82" name="3178318219720" type="Const" version="opset1">
			<data element_type="f32" offset="0" shape="1,1,1,1" size="4"/>
			<output>
				<port id="0" precision="FP32">
					<dim>1</dim>
					<dim>1</dim>
					<dim>1</dim>
					<dim>1</dim>
				</port>
			</output>
		</layer>
		<layer id="83" name="3179318318046" type="Const" version="opset1">
			<data element_type="f32" offset="140" shape="1,1,1,1" size="4"/>
			<output>
				<port id="0" precision="FP32">
					<dim>1</dim>
					<dim>1</dim>
					<dim>1</dim>
					<dim>1</dim>
				</port>
			</output>
		</layer>
		<layer id="84" name="3786379018598" type="Const" version="opset1">
			<data element_type="f32" offset="0" shape="1,1,1,1" size="4"/>
			<output>
				<port id="0" precision="FP32">
					<dim>1</dim>
					<dim>1</dim>
					<dim>1</dim>
					<dim>1</dim>
				</port>
			</output>
		</layer>
		<layer id="85" name="3787379120104" type="Const" version="opset1">
			<data element_type="f32" offset="4" shape="1,1,1,1" size="4"/>
			<output>
				<port id="0" precision="FP32">
					<dim>1</dim>
					<dim>1</dim>
					<dim>1</dim>
					<dim>1</dim>
				</port>
			</output>
		</layer>
		<layer id="86" name="3788379218628" type="Const" version="opset1">
			<data element_type="f32" offset="0" shape="1,1,1,1" size="4"/>
			<output>
				<port id="0" precision="FP32">
					<dim>1</dim>
					<dim>1</dim>
					<dim>1</dim>
					<dim>1</dim>
				</port>
			</output>
		</layer>
		<layer id="87" name="3789379319678" type="Const" version="opset1">
			<data element_type="f32" offset="4" shape="1,1,1,1" size="4"/>
			<output>
				<port id="0" precision="FP32">
					<dim>1</dim>
					<dim>1</dim>
					<dim>1</dim>
					<dim>1</dim>
				</port>
			</output>
		</layer>
		<layer id="88" name="3926393018544" type="Const" version="opset1">
			<data element_type="f32" offset="0" shape="1,1,1,1" size="4"/>
			<output>
				<port id="0" precision="FP32">
					<dim>1</dim>
					<dim>1</dim>
					<dim>1</dim>
					<dim>1</dim>
				</port>
			</output>
		</layer>
		<layer id="89" name="3927393120233" type="Const" version="opset1">
			<data element_type="f32" offset="32" shape="1,1,1,1" size="4"/>
			<output>
				<port id="0" precision="FP32">
					<dim>1</dim>
					<dim>1</dim>
					<dim>1</dim>
					<dim>1</dim>
				</port>
			</output>
		</layer>
		<layer id="90" name="3928393219300" type="Const" version="opset1">
			<data element_type="f32" offset="0" shape="1,1,1,1" size="4"/>
			<output>
				<port id="0" precision="FP32">
					<dim>1</dim>
					<dim>1</dim>
					<dim>1</dim>
					<dim>1</dim>
				</port>
			</output>
		</layer>
		<layer id="91" name="3929393319996" type="Const" version="opset1">
			<data element_type="f32" offset="32" shape="1,1,1,1" size="4"/>
			<output>
				<port id="0" precision="FP32">
					<dim>1</dim>
					<dim>1</dim>
					<dim>1</dim>
					<dim>1</dim>
				</port>
			</output>
		</layer>
		<layer id="92" name="5926593018919" type="Const" version="opset1">
			<data element_type="f32" offset="144" shape="1,1,1,1" size="4"/>
			<output>
				<port id="0" precision="FP32">
					<dim>1</dim>
					<dim>1</dim>
					<dim>1</dim>
					<dim>1</dim>
				</port>
			</output>
		</layer>
		<layer id="93" name="5927593117983" type="Const" version="opset1">
			<data element_type="f32" offset="148" shape="1,1,1,1" size="4"/>
			<output>
				<port id="0" precision="FP32">
					<dim>1</dim>
					<dim>1</dim>
					<dim>1</dim>
					<dim>1</dim>
				</port>
			</output>
		</layer>
		<layer id="94" name="5928593218208" type="Const" version="opset1">
			<data element_type="f32" offset="144" shape="1,1,1,1" size="4"/>
			<output>
				<port id="0" precision="FP32">
					<dim>1</dim>
					<dim>1</dim>
					<dim>1</dim>
					<dim>1</dim>
				</port>
			</output>
		</layer>
		<layer id="95" name="5929593318976" type="Const" version="opset1">
			<data element_type="f32" offset="148" shape="1,1,1,1" size="4"/>
			<output>
				<port id="0" precision="FP32">
					<dim>1</dim>
					<dim>1</dim>
					<dim>1</dim>
					<dim>1</dim>
				</port>
			</output>
		</layer>
		<layer id="96" name="2686269019297" type="Const" version="opset1">
			<data element_type="f32" offset="152" shape="1,1,1,1" size="4"/>
			<output>
				<port id="0" precision="FP32">
					<dim>1</dim>
					<dim>1</dim>
					<dim>1</dim>
					<dim>1</dim>
				</port>
			</output>
		</layer>
		<layer id="97" name="2687269118934" type="Const" version="opset1">
			<data element_type="f32" offset="156" shape="1,1,1,1" size="4"/>
			<output>
				<port id="0" precision="FP32">
					<dim>1</dim>
					<dim>1</dim>
					<dim>1</dim>
					<dim>1</dim>
				</port>
			</output>
		</layer>
		<layer id="98" name="2688269217995" type="Const" version="opset1">
			<data element_type="f32" offset="152" shape="1,1,1,1" size="4"/>
			<output>
				<port id="0" precision="FP32">
					<dim>1</dim>
					<dim>1</dim>
					<dim>1</dim>
					<dim>1</dim>
				</port>
			</output>
		</layer>
		<layer id="99" name="2689269318835" type="Const" version="opset1">
			<data element_type="f32" offset="156" shape="1,1,1,1" size="4"/>
			<output>
				<port id="0" precision="FP32">
					<dim>1</dim>
					<dim>1</dim>
					<dim>1</dim>
					<dim>1</dim>
				</port>
			</output>
		</layer>
		<layer id="100" name="2776278018529" type="Const" version="opset1">
			<data element_type="f32" offset="0" shape="1,1,1,1" size="4"/>
			<output>
				<port id="0" precision="FP32">
					<dim>1</dim>
					<dim>1</dim>
					<dim>1</dim>
					<dim>1</dim>
				</port>
			</output>
		</layer>
		<layer id="101" name="2777278119021" type="Const" version="opset1">
			<data element_type="f32" offset="160" shape="1,1,1,1" size="4"/>
			<output>
				<port id="0" precision="FP32">
					<dim>1</dim>
					<dim>1</dim>
					<dim>1</dim>
					<dim>1</dim>
				</port>
			</output>
		</layer>
		<layer id="102" name="2778278220044" type="Const" version="opset1">
			<data element_type="f32" offset="0" shape="1,1,1,1" size="4"/>
			<output>
				<port id="0" precision="FP32">
					<dim>1</dim>
					<dim>1</dim>
					<dim>1</dim>
					<dim>1</dim>
				</port>
			</output>
		</layer>
		<layer id="103" name="2779278318556" type="Const" version="opset1">
			<data element_type="f32" offset="160" shape="1,1,1,1" size="4"/>
			<output>
				<port id="0" precision="FP32">
					<dim>1</dim>
					<dim>1</dim>
					<dim>1</dim>
					<dim>1</dim>
				</port>
			</output>
		</layer>
		<layer id="104" name="2666267018229" type="Const" version="opset1">
			<data element_type="f32" offset="0" shape="1,1,1,1" size="4"/>
			<output>
				<port id="0" precision="FP32">
					<dim>1</dim>
					<dim>1</dim>
					<dim>1</dim>
					<dim>1</dim>
				</port>
			</output>
		</layer>
		<layer id="105" name="2667267118040" type="Const" version="opset1">
			<data element_type="f32" offset="164" shape="1,1,1,1" size="4"/>
			<output>
				<port id="0" precision="FP32">
					<dim>1</dim>
					<dim>1</dim>
					<dim>1</dim>
					<dim>1</dim>
				</port>
			</output>
		</layer>
		<layer id="106" name="2668267218445" type="Const" version="opset1">
			<data element_type="f32" offset="0" shape="1,1,1,1" size="4"/>
			<output>
				<port id="0" precision="FP32">
					<dim>1</dim>
					<dim>1</dim>
					<dim>1</dim>
					<dim>1</dim>
				</port>
			</output>
		</layer>
		<layer id="107" name="2669267318796" type="Const" version="opset1">
			<data element_type="f32" offset="164" shape="1,1,1,1" size="4"/>
			<output>
				<port id="0" precision="FP32">
					<dim>1</dim>
					<dim>1</dim>
					<dim>1</dim>
					<dim>1</dim>
				</port>
			</output>
		</layer>
		<layer id="108" name="3906391018517" type="Const" version="opset1">
			<data element_type="f32" offset="0" shape="1,1,1,1" size="4"/>
			<output>
				<port id="0" precision="FP32">
					<dim>1</dim>
					<dim>1</dim>
					<dim>1</dim>
					<dim>1</dim>
				</port>
			</output>
		</layer>
		<layer id="109" name="3907391118238" type="Const" version="opset1">
			<data element_type="f32" offset="164" shape="1,1,1,1" size="4"/>
			<output>
				<port id="0" precision="FP32">
					<dim>1</dim>
					<dim>1</dim>
					<dim>1</dim>
					<dim>1</dim>
				</port>
			</output>
		</layer>
		<layer id="110" name="3908391218871" type="Const" version="opset1">
			<data element_type="f32" offset="0" shape="1,1,1,1" size="4"/>
			<output>
				<port id="0" precision="FP32">
					<dim>1</dim>
					<dim>1</dim>
					<dim>1</dim>
					<dim>1</dim>
				</port>
			</output>
		</layer>
		<layer id="111" name="3909391318469" type="Const" version="opset1">
			<data element_type="f32" offset="164" shape="1,1,1,1" size="4"/>
			<output>
				<port id="0" precision="FP32">
					<dim>1</dim>
					<dim>1</dim>
					<dim>1</dim>
					<dim>1</dim>
				</port>
			</output>
		</layer>
		<layer id="112" name="4236424018790" type="Const" version="opset1">
			<data element_type="f32" offset="168" shape="1,1,1,1" size="4"/>
			<output>
				<port id="0" precision="FP32">
					<dim>1</dim>
					<dim>1</dim>
					<dim>1</dim>
					<dim>1</dim>
				</port>
			</output>
		</layer>
		<layer id="113" name="4237424117959" type="Const" version="opset1">
			<data element_type="f32" offset="172" shape="1,1,1,1" size="4"/>
			<output>
				<port id="0" precision="FP32">
					<dim>1</dim>
					<dim>1</dim>
					<dim>1</dim>
					<dim>1</dim>
				</port>
			</output>
		</layer>
		<layer id="114" name="4238424219432" type="Const" version="opset1">
			<data element_type="f32" offset="168" shape="1,1,1,1" size="4"/>
			<output>
				<port id="0" precision="FP32">
					<dim>1</dim>
					<dim>1</dim>
					<dim>1</dim>
					<dim>1</dim>
				</port>
			</output>
		</layer>
		<layer id="115" name="4239424317923" type="Const" version="opset1">
			<data element_type="f32" offset="172" shape="1,1,1,1" size="4"/>
			<output>
				<port id="0" precision="FP32">
					<dim>1</dim>
					<dim>1</dim>
					<dim>1</dim>
					<dim>1</dim>
				</port>
			</output>
		</layer>
		<layer id="117" name="Conv_0/WithoutBiases/fq_input_0" type="FakeQuantize" version="opset1">
			<data auto_broadcast="numpy" levels="256"/>
			<input>
				<port id="0">
					<dim>1</dim>
					<dim>3</dim>
					<dim>640</dim>
					<dim>640</dim>
				</port>
				<port id="1">
					<dim>1</dim>
					<dim>1</dim>
					<dim>1</dim>
					<dim>1</dim>
				</port>
				<port id="2">
					<dim>1</dim>
					<dim>1</dim>
					<dim>1</dim>
					<dim>1</dim>
				</port>
				<port id="3">
					<dim>1</dim>
					<dim>1</dim>
					<dim>1</dim>
					<dim>1</dim>
				</port>
				<port id="4">
					<dim>1</dim>
					<dim>1</dim>
					<dim>1</dim>
					<dim>1</dim>
				</port>
			</input>
			<output>
				<port id="5" precision="FP32">
					<dim>1</dim>
					<dim>3</dim>
					<dim>640</dim>
					<dim>640</dim>
				</port>
			</output>
		</layer>
		<layer id="118" name="model.0.conv.weight59510393/quantized1392419384" type="Const" version="opset1">
			<data element_type="i8" offset="176" shape="48,3,6,6" size="5184"/>
			<output>
				<port id="0" precision="I8">
					<dim>48</dim>
					<dim>3</dim>
					<dim>6</dim>
					<dim>6</dim>
				</port>
			</output>
		</layer>
		<layer id="119" name="model.0.conv.weight59510393/quantized/to_f32" type="Convert" version="opset1">
			<data destination_type="f32"/>
			<input>
				<port id="0">
					<dim>48</dim>
					<dim>3</dim>
					<dim>6</dim>
					<dim>6</dim>
				</port>
			</input>
			<output>
				<port id="1" precision="FP32">
					<dim>48</dim>
					<dim>3</dim>
					<dim>6</dim>
					<dim>6</dim>
				</port>
			</output>
		</layer>
		<layer id="120" name="Conv_0/WithoutBiases/fq_weights_1/zero_point1394318895" type="Const" version="opset1">
			<data element_type="f32" offset="5360" shape="48,1,1,1" size="192"/>
			<output>
				<port id="0" precision="FP32">
					<dim>48</dim>
					<dim>1</dim>
					<dim>1</dim>
					<dim>1</dim>
				</port>
			</output>
		</layer>
		<layer id="121" name="Conv_0/WithoutBiases/fq_weights_1/minus_zp" type="Subtract" version="opset1">
			<data auto_broadcast="numpy"/>
			<input>
				<port id="0">
					<dim>48</dim>
					<dim>3</dim>
					<dim>6</dim>
					<dim>6</dim>
				</port>
				<port id="1">
					<dim>48</dim>
					<dim>1</dim>
					<dim>1</dim>
					<dim>1</dim>
				</port>
			</input>
			<output>
				<port id="2" precision="FP32">
					<dim>48</dim>
					<dim>3</dim>
					<dim>6</dim>
					<dim>6</dim>
				</port>
			</output>
		</layer>
		<layer id="122" name="Conv_0/WithoutBiases/fq_weights_1/scale1393220191" type="Const" version="opset1">
			<data element_type="f32" offset="5552" shape="48,1,1,1" size="192"/>
			<output>
				<port id="0" precision="FP32">
					<dim>48</dim>
					<dim>1</dim>
					<dim>1</dim>
					<dim>1</dim>
				</port>
			</output>
		</layer>
		<layer id="123" name="Conv_0/WithoutBiases/fq_weights_1/mulpiply_by_scale" type="Multiply" version="opset1">
			<data auto_broadcast="numpy"/>
			<input>
				<port id="0">
					<dim>48</dim>
					<dim>3</dim>
					<dim>6</dim>
					<dim>6</dim>
				</port>
				<port id="1">
					<dim>48</dim>
					<dim>1</dim>
					<dim>1</dim>
					<dim>1</dim>
				</port>
			</input>
			<output>
				<port id="2" precision="FP32">
					<dim>48</dim>
					<dim>3</dim>
					<dim>6</dim>
					<dim>6</dim>
				</port>
			</output>
		</layer>
		<layer id="124" name="Conv_0/WithoutBiases" type="Convolution" version="opset1">
			<data auto_pad="explicit" dilations="1,1" pads_begin="2,2" pads_end="2,2" strides="2,2"/>
			<rt_info>
				<attribute name="fused_names" value="Conv_0/WithoutBiases" version="0"/>
			</rt_info>
			<input>
				<port id="0">
					<dim>1</dim>
					<dim>3</dim>
					<dim>640</dim>
					<dim>640</dim>
				</port>
				<port id="1">
					<dim>48</dim>
					<dim>3</dim>
					<dim>6</dim>
					<dim>6</dim>
				</port>
			</input>
			<output>
				<port id="2" precision="FP32">
					<dim>1</dim>
					<dim>48</dim>
					<dim>320</dim>
					<dim>320</dim>
				</port>
			</output>
		</layer>
		<layer id="125" name="Reshape_19959720374" type="Const" version="opset1">
			<data element_type="f32" offset="5744" shape="1,48,1,1" size="192"/>
			<output>
				<port id="0" precision="FP32">
					<dim>1</dim>
					<dim>48</dim>
					<dim>1</dim>
					<dim>1</dim>
				</port>
			</output>
		</layer>
		<layer id="126" name="Conv_0" type="Add" version="opset1">
			<data auto_broadcast="numpy"/>
			<rt_info>
				<attribute name="fused_names" value="Concat_198, Conv_0, Reshape_199" version="0"/>
			</rt_info>
			<input>
				<port id="0">
					<dim>1</dim>
					<dim>48</dim>
					<dim>320</dim>
					<dim>320</dim>
				</port>
				<port id="1">
					<dim>1</dim>
					<dim>48</dim>
					<dim>1</dim>
					<dim>1</dim>
				</port>
			</input>
			<output>
				<port id="2" names="166" precision="FP32">
					<dim>1</dim>
					<dim>48</dim>
					<dim>320</dim>
					<dim>320</dim>
				</port>
			</output>
		</layer>
		<layer id="127" name="Mul_2" type="Swish" version="opset4">
			<rt_info>
				<attribute name="fused_names" value="Mul_2, Sigmoid_1" version="0"/>
			</rt_info>
			<input>
				<port id="0">
					<dim>1</dim>
					<dim>48</dim>
					<dim>320</dim>
					<dim>320</dim>
				</port>
			</input>
			<output>
				<port id="1" names="168" precision="FP32">
					<dim>1</dim>
					<dim>48</dim>
					<dim>320</dim>
					<dim>320</dim>
				</port>
			</output>
		</layer>
		<layer id="128" name="Conv_3/WithoutBiases/fq_input_0" type="FakeQuantize" version="opset1">
			<data auto_broadcast="numpy" levels="256"/>
			<input>
				<port id="0">
					<dim>1</dim>
					<dim>48</dim>
					<dim>320</dim>
					<dim>320</dim>
				</port>
				<port id="1">
					<dim>1</dim>
					<dim>1</dim>
					<dim>1</dim>
					<dim>1</dim>
				</port>
				<port id="2">
					<dim>1</dim>
					<dim>1</dim>
					<dim>1</dim>
					<dim>1</dim>
				</port>
				<port id="3">
					<dim>1</dim>
					<dim>1</dim>
					<dim>1</dim>
					<dim>1</dim>
				</port>
				<port id="4">
					<dim>1</dim>
					<dim>1</dim>
					<dim>1</dim>
					<dim>1</dim>
				</port>
			</input>
			<output>
				<port id="5" precision="FP32">
					<dim>1</dim>
					<dim>48</dim>
					<dim>320</dim>
					<dim>320</dim>
				</port>
			</output>
		</layer>
		<layer id="129" name="model.1.conv.weight60010395/quantized1167419216" type="Const" version="opset1">
			<data element_type="i8" offset="5936" shape="96,48,3,3" size="41472"/>
			<output>
				<port id="0" precision="I8">
					<dim>96</dim>
					<dim>48</dim>
					<dim>3</dim>
					<dim>3</dim>
				</port>
			</output>
		</layer>
		<layer id="130" name="model.1.conv.weight60010395/quantized/to_f32" type="Convert" version="opset1">
			<data destination_type="f32"/>
			<input>
				<port id="0">
					<dim>96</dim>
					<dim>48</dim>
					<dim>3</dim>
					<dim>3</dim>
				</port>
			</input>
			<output>
				<port id="1" precision="FP32">
					<dim>96</dim>
					<dim>48</dim>
					<dim>3</dim>
					<dim>3</dim>
				</port>
			</output>
		</layer>
		<layer id="131" name="Conv_3/WithoutBiases/fq_weights_1/zero_point1169318001" type="Const" version="opset1">
			<data element_type="f32" offset="47408" shape="96,1,1,1" size="384"/>
			<output>
				<port id="0" precision="FP32">
					<dim>96</dim>
					<dim>1</dim>
					<dim>1</dim>
					<dim>1</dim>
				</port>
			</output>
		</layer>
		<layer id="132" name="Conv_3/WithoutBiases/fq_weights_1/minus_zp" type="Subtract" version="opset1">
			<data auto_broadcast="numpy"/>
			<input>
				<port id="0">
					<dim>96</dim>
					<dim>48</dim>
					<dim>3</dim>
					<dim>3</dim>
				</port>
				<port id="1">
					<dim>96</dim>
					<dim>1</dim>
					<dim>1</dim>
					<dim>1</dim>
				</port>
			</input>
			<output>
				<port id="2" precision="FP32">
					<dim>96</dim>
					<dim>48</dim>
					<dim>3</dim>
					<dim>3</dim>
				</port>
			</output>
		</layer>
		<layer id="133" name="Conv_3/WithoutBiases/fq_weights_1/scale1168220140" type="Const" version="opset1">
			<data element_type="f32" offset="47792" shape="96,1,1,1" size="384"/>
			<output>
				<port id="0" precision="FP32">
					<dim>96</dim>
					<dim>1</dim>
					<dim>1</dim>
					<dim>1</dim>
				</port>
			</output>
		</layer>
		<layer id="134" name="Conv_3/WithoutBiases/fq_weights_1/mulpiply_by_scale" type="Multiply" version="opset1">
			<data auto_broadcast="numpy"/>
			<input>
				<port id="0">
					<dim>96</dim>
					<dim>48</dim>
					<dim>3</dim>
					<dim>3</dim>
				</port>
				<port id="1">
					<dim>96</dim>
					<dim>1</dim>
					<dim>1</dim>
					<dim>1</dim>
				</port>
			</input>
			<output>
				<port id="2" precision="FP32">
					<dim>96</dim>
					<dim>48</dim>
					<dim>3</dim>
					<dim>3</dim>
				</port>
			</output>
		</layer>
		<layer id="135" name="Conv_3/WithoutBiases" type="Convolution" version="opset1">
			<data auto_pad="explicit" dilations="1,1" pads_begin="1,1" pads_end="1,1" strides="2,2"/>
			<rt_info>
				<attribute name="fused_names" value="Conv_3/WithoutBiases" version="0"/>
			</rt_info>
			<input>
				<port id="0">
					<dim>1</dim>
					<dim>48</dim>
					<dim>320</dim>
					<dim>320</dim>
				</port>
				<port id="1">
					<dim>96</dim>
					<dim>48</dim>
					<dim>3</dim>
					<dim>3</dim>
				</port>
			</input>
			<output>
				<port id="2" precision="FP32">
					<dim>1</dim>
					<dim>96</dim>
					<dim>160</dim>
					<dim>160</dim>
				</port>
			</output>
		</layer>
		<layer id="136" name="Reshape_24960220296" type="Const" version="opset1">
			<data element_type="f32" offset="48176" shape="1,96,1,1" size="384"/>
			<output>
				<port id="0" precision="FP32">
					<dim>1</dim>
					<dim>96</dim>
					<dim>1</dim>
					<dim>1</dim>
				</port>
			</output>
		</layer>
		<layer id="137" name="Conv_3" type="Add" version="opset1">
			<data auto_broadcast="numpy"/>
			<rt_info>
				<attribute name="fused_names" value="Concat_248, Conv_3, Reshape_249" version="0"/>
			</rt_info>
			<input>
				<port id="0">
					<dim>1</dim>
					<dim>96</dim>
					<dim>160</dim>
					<dim>160</dim>
				</port>
				<port id="1">
					<dim>1</dim>
					<dim>96</dim>
					<dim>1</dim>
					<dim>1</dim>
				</port>
			</input>
			<output>
				<port id="2" names="169" precision="FP32">
					<dim>1</dim>
					<dim>96</dim>
					<dim>160</dim>
					<dim>160</dim>
				</port>
			</output>
		</layer>
		<layer id="138" name="Mul_5" type="Swish" version="opset4">
			<rt_info>
				<attribute name="fused_names" value="Mul_5, Sigmoid_4" version="0"/>
			</rt_info>
			<input>
				<port id="0">
					<dim>1</dim>
					<dim>96</dim>
					<dim>160</dim>
					<dim>160</dim>
				</port>
			</input>
			<output>
				<port id="1" names="171" precision="FP32">
					<dim>1</dim>
					<dim>96</dim>
					<dim>160</dim>
					<dim>160</dim>
				</port>
			</output>
		</layer>
		<layer id="139" name="Conv_23/WithoutBiases/fq_input_0" type="FakeQuantize" version="opset1">
			<data auto_broadcast="numpy" levels="256"/>
			<input>
				<port id="0">
					<dim>1</dim>
					<dim>96</dim>
					<dim>160</dim>
					<dim>160</dim>
				</port>
				<port id="1">
					<dim>1</dim>
					<dim>1</dim>
					<dim>1</dim>
					<dim>1</dim>
				</port>
				<port id="2">
					<dim>1</dim>
					<dim>1</dim>
					<dim>1</dim>
					<dim>1</dim>
				</port>
				<port id="3">
					<dim>1</dim>
					<dim>1</dim>
					<dim>1</dim>
					<dim>1</dim>
				</port>
				<port id="4">
					<dim>1</dim>
					<dim>1</dim>
					<dim>1</dim>
					<dim>1</dim>
				</port>
			</input>
			<output>
				<port id="5" precision="FP32">
					<dim>1</dim>
					<dim>96</dim>
					<dim>160</dim>
					<dim>160</dim>
				</port>
			</output>
		</layer>
		<layer id="140" name="model.2.cv1.conv.weight60510397/quantized1227419198" type="Const" version="opset1">
			<data element_type="i8" offset="48560" shape="48,96,1,1" size="4608"/>
			<output>
				<port id="0" precision="I8">
					<dim>48</dim>
					<dim>96</dim>
					<dim>1</dim>
					<dim>1</dim>
				</port>
			</output>
		</layer>
		<layer id="141" name="model.2.cv1.conv.weight60510397/quantized/to_f32" type="Convert" version="opset1">
			<data destination_type="f32"/>
			<input>
				<port id="0">
					<dim>48</dim>
					<dim>96</dim>
					<dim>1</dim>
					<dim>1</dim>
				</port>
			</input>
			<output>
				<port id="1" precision="FP32">
					<dim>48</dim>
					<dim>96</dim>
					<dim>1</dim>
					<dim>1</dim>
				</port>
			</output>
		</layer>
		<layer id="142" name="Conv_6/WithoutBiases/fq_weights_1/zero_point1229319654" type="Const" version="opset1">
			<data element_type="f32" offset="53168" shape="48,1,1,1" size="192"/>
			<output>
				<port id="0" precision="FP32">
					<dim>48</dim>
					<dim>1</dim>
					<dim>1</dim>
					<dim>1</dim>
				</port>
			</output>
		</layer>
		<layer id="143" name="Conv_6/WithoutBiases/fq_weights_1/minus_zp" type="Subtract" version="opset1">
			<data auto_broadcast="numpy"/>
			<input>
				<port id="0">
					<dim>48</dim>
					<dim>96</dim>
					<dim>1</dim>
					<dim>1</dim>
				</port>
				<port id="1">
					<dim>48</dim>
					<dim>1</dim>
					<dim>1</dim>
					<dim>1</dim>
				</port>
			</input>
			<output>
				<port id="2" precision="FP32">
					<dim>48</dim>
					<dim>96</dim>
					<dim>1</dim>
					<dim>1</dim>
				</port>
			</output>
		</layer>
		<layer id="144" name="Conv_6/WithoutBiases/fq_weights_1/scale1228220035" type="Const" version="opset1">
			<data element_type="f32" offset="53360" shape="48,1,1,1" size="192"/>
			<output>
				<port id="0" precision="FP32">
					<dim>48</dim>
					<dim>1</dim>
					<dim>1</dim>
					<dim>1</dim>
				</port>
			</output>
		</layer>
		<layer id="145" name="Conv_6/WithoutBiases/fq_weights_1/mulpiply_by_scale" type="Multiply" version="opset1">
			<data auto_broadcast="numpy"/>
			<input>
				<port id="0">
					<dim>48</dim>
					<dim>96</dim>
					<dim>1</dim>
					<dim>1</dim>
				</port>
				<port id="1">
					<dim>48</dim>
					<dim>1</dim>
					<dim>1</dim>
					<dim>1</dim>
				</port>
			</input>
			<output>
				<port id="2" precision="FP32">
					<dim>48</dim>
					<dim>96</dim>
					<dim>1</dim>
					<dim>1</dim>
				</port>
			</output>
		</layer>
		<layer id="146" name="Conv_6/WithoutBiases" type="Convolution" version="opset1">
			<data auto_pad="explicit" dilations="1,1" pads_begin="0,0" pads_end="0,0" strides="1,1"/>
			<rt_info>
				<attribute name="fused_names" value="Conv_6/WithoutBiases" version="0"/>
			</rt_info>
			<input>
				<port id="0">
					<dim>1</dim>
					<dim>96</dim>
					<dim>160</dim>
					<dim>160</dim>
				</port>
				<port id="1">
					<dim>48</dim>
					<dim>96</dim>
					<dim>1</dim>
					<dim>1</dim>
				</port>
			</input>
			<output>
				<port id="2" precision="FP32">
					<dim>1</dim>
					<dim>48</dim>
					<dim>160</dim>
					<dim>160</dim>
				</port>
			</output>
		</layer>
		<layer id="147" name="Reshape_29960719183" type="Const" version="opset1">
			<data element_type="f32" offset="53552" shape="1,48,1,1" size="192"/>
			<output>
				<port id="0" precision="FP32">
					<dim>1</dim>
					<dim>48</dim>
					<dim>1</dim>
					<dim>1</dim>
				</port>
			</output>
		</layer>
		<layer id="148" name="Conv_6" type="Add" version="opset1">
			<data auto_broadcast="numpy"/>
			<rt_info>
				<attribute name="fused_names" value="Concat_298, Conv_6, Reshape_299" version="0"/>
			</rt_info>
			<input>
				<port id="0">
					<dim>1</dim>
					<dim>48</dim>
					<dim>160</dim>
					<dim>160</dim>
				</port>
				<port id="1">
					<dim>1</dim>
					<dim>48</dim>
					<dim>1</dim>
					<dim>1</dim>
				</port>
			</input>
			<output>
				<port id="2" names="172" precision="FP32">
					<dim>1</dim>
					<dim>48</dim>
					<dim>160</dim>
					<dim>160</dim>
				</port>
			</output>
		</layer>
		<layer id="149" name="Mul_8" type="Swish" version="opset4">
			<rt_info>
				<attribute name="fused_names" value="Mul_8, Sigmoid_7" version="0"/>
			</rt_info>
			<input>
				<port id="0">
					<dim>1</dim>
					<dim>48</dim>
					<dim>160</dim>
					<dim>160</dim>
				</port>
			</input>
			<output>
				<port id="1" names="174" precision="FP32">
					<dim>1</dim>
					<dim>48</dim>
					<dim>160</dim>
					<dim>160</dim>
				</port>
			</output>
		</layer>
		<layer id="150" name="Add_15/fq_input_0" type="FakeQuantize" version="opset1">
			<data auto_broadcast="numpy" levels="256"/>
			<input>
				<port id="0">
					<dim>1</dim>
					<dim>48</dim>
					<dim>160</dim>
					<dim>160</dim>
				</port>
				<port id="1">
					<dim>1</dim>
					<dim>1</dim>
					<dim>1</dim>
					<dim>1</dim>
				</port>
				<port id="2">
					<dim>1</dim>
					<dim>1</dim>
					<dim>1</dim>
					<dim>1</dim>
				</port>
				<port id="3">
					<dim>1</dim>
					<dim>1</dim>
					<dim>1</dim>
					<dim>1</dim>
				</port>
				<port id="4">
					<dim>1</dim>
					<dim>1</dim>
					<dim>1</dim>
					<dim>1</dim>
				</port>
			</input>
			<output>
				<port id="5" precision="FP32">
					<dim>1</dim>
					<dim>48</dim>
					<dim>160</dim>
					<dim>160</dim>
				</port>
			</output>
		</layer>
		<layer id="151" name="2786279018115" type="Const" version="opset1">
			<data element_type="f32" offset="53744" shape="1,1,1,1" size="4"/>
			<output>
				<port id="0" precision="FP32">
					<dim>1</dim>
					<dim>1</dim>
					<dim>1</dim>
					<dim>1</dim>
				</port>
			</output>
		</layer>
		<layer id="152" name="2787279120170" type="Const" version="opset1">
			<data element_type="f32" offset="53748" shape="1,1,1,1" size="4"/>
			<output>
				<port id="0" precision="FP32">
					<dim>1</dim>
					<dim>1</dim>
					<dim>1</dim>
					<dim>1</dim>
				</port>
			</output>
		</layer>
		<layer id="153" name="2788279219711" type="Const" version="opset1">
			<data element_type="f32" offset="53744" shape="1,1,1,1" size="4"/>
			<output>
				<port id="0" precision="FP32">
					<dim>1</dim>
					<dim>1</dim>
					<dim>1</dim>
					<dim>1</dim>
				</port>
			</output>
		</layer>
		<layer id="154" name="2789279319504" type="Const" version="opset1">
			<data element_type="f32" offset="53748" shape="1,1,1,1" size="4"/>
			<output>
				<port id="0" precision="FP32">
					<dim>1</dim>
					<dim>1</dim>
					<dim>1</dim>
					<dim>1</dim>
				</port>
			</output>
		</layer>
		<layer id="155" name="4296430020137" type="Const" version="opset1">
			<data element_type="f32" offset="53752" shape="1,1,1,1" size="4"/>
			<output>
				<port id="0" precision="FP32">
					<dim>1</dim>
					<dim>1</dim>
					<dim>1</dim>
					<dim>1</dim>
				</port>
			</output>
		</layer>
		<layer id="156" name="4297430120053" type="Const" version="opset1">
			<data element_type="f32" offset="53756" shape="1,1,1,1" size="4"/>
			<output>
				<port id="0" precision="FP32">
					<dim>1</dim>
					<dim>1</dim>
					<dim>1</dim>
					<dim>1</dim>
				</port>
			</output>
		</layer>
		<layer id="157" name="4298430218223" type="Const" version="opset1">
			<data element_type="f32" offset="53752" shape="1,1,1,1" size="4"/>
			<output>
				<port id="0" precision="FP32">
					<dim>1</dim>
					<dim>1</dim>
					<dim>1</dim>
					<dim>1</dim>
				</port>
			</output>
		</layer>
		<layer id="158" name="4299430319630" type="Const" version="opset1">
			<data element_type="f32" offset="53756" shape="1,1,1,1" size="4"/>
			<output>
				<port id="0" precision="FP32">
					<dim>1</dim>
					<dim>1</dim>
					<dim>1</dim>
					<dim>1</dim>
				</port>
			</output>
		</layer>
		<layer id="159" name="model.2.m.0.cv1.conv.weight61010399/quantized1245418799" type="Const" version="opset1">
			<data element_type="i8" offset="53760" shape="48,48,1,1" size="2304"/>
			<output>
				<port id="0" precision="I8">
					<dim>48</dim>
					<dim>48</dim>
					<dim>1</dim>
					<dim>1</dim>
				</port>
			</output>
		</layer>
		<layer id="160" name="model.2.m.0.cv1.conv.weight61010399/quantized/to_f32" type="Convert" version="opset1">
			<data destination_type="f32"/>
			<input>
				<port id="0">
					<dim>48</dim>
					<dim>48</dim>
					<dim>1</dim>
					<dim>1</dim>
				</port>
			</input>
			<output>
				<port id="1" precision="FP32">
					<dim>48</dim>
					<dim>48</dim>
					<dim>1</dim>
					<dim>1</dim>
				</port>
			</output>
		</layer>
		<layer id="161" name="Conv_9/WithoutBiases/fq_weights_1/zero_point1247318841" type="Const" version="opset1">
			<data element_type="f32" offset="56064" shape="48,1,1,1" size="192"/>
			<output>
				<port id="0" precision="FP32">
					<dim>48</dim>
					<dim>1</dim>
					<dim>1</dim>
					<dim>1</dim>
				</port>
			</output>
		</layer>
		<layer id="162" name="Conv_9/WithoutBiases/fq_weights_1/minus_zp" type="Subtract" version="opset1">
			<data auto_broadcast="numpy"/>
			<input>
				<port id="0">
					<dim>48</dim>
					<dim>48</dim>
					<dim>1</dim>
					<dim>1</dim>
				</port>
				<port id="1">
					<dim>48</dim>
					<dim>1</dim>
					<dim>1</dim>
					<dim>1</dim>
				</port>
			</input>
			<output>
				<port id="2" precision="FP32">
					<dim>48</dim>
					<dim>48</dim>
					<dim>1</dim>
					<dim>1</dim>
				</port>
			</output>
		</layer>
		<layer id="163" name="Conv_9/WithoutBiases/fq_weights_1/scale1246218721" type="Const" version="opset1">
			<data element_type="f32" offset="56256" shape="48,1,1,1" size="192"/>
			<output>
				<port id="0" precision="FP32">
					<dim>48</dim>
					<dim>1</dim>
					<dim>1</dim>
					<dim>1</dim>
				</port>
			</output>
		</layer>
		<layer id="164" name="Conv_9/WithoutBiases/fq_weights_1/mulpiply_by_scale" type="Multiply" version="opset1">
			<data auto_broadcast="numpy"/>
			<input>
				<port id="0">
					<dim>48</dim>
					<dim>48</dim>
					<dim>1</dim>
					<dim>1</dim>
				</port>
				<port id="1">
					<dim>48</dim>
					<dim>1</dim>
					<dim>1</dim>
					<dim>1</dim>
				</port>
			</input>
			<output>
				<port id="2" precision="FP32">
					<dim>48</dim>
					<dim>48</dim>
					<dim>1</dim>
					<dim>1</dim>
				</port>
			</output>
		</layer>
		<layer id="165" name="Conv_9/WithoutBiases" type="Convolution" version="opset1">
			<data auto_pad="explicit" dilations="1,1" pads_begin="0,0" pads_end="0,0" strides="1,1"/>
			<rt_info>
				<attribute name="fused_names" value="Conv_9/WithoutBiases" version="0"/>
			</rt_info>
			<input>
				<port id="0">
					<dim>1</dim>
					<dim>48</dim>
					<dim>160</dim>
					<dim>160</dim>
				</port>
				<port id="1">
					<dim>48</dim>
					<dim>48</dim>
					<dim>1</dim>
					<dim>1</dim>
				</port>
			</input>
			<output>
				<port id="2" precision="FP32">
					<dim>1</dim>
					<dim>48</dim>
					<dim>160</dim>
					<dim>160</dim>
				</port>
			</output>
		</layer>
		<layer id="166" name="Reshape_34961220419" type="Const" version="opset1">
			<data element_type="f32" offset="56448" shape="1,48,1,1" size="192"/>
			<output>
				<port id="0" precision="FP32">
					<dim>1</dim>
					<dim>48</dim>
					<dim>1</dim>
					<dim>1</dim>
				</port>
			</output>
		</layer>
		<layer id="167" name="Conv_9" type="Add" version="opset1">
			<data auto_broadcast="numpy"/>
			<rt_info>
				<attribute name="fused_names" value="Concat_348, Conv_9, Reshape_349" version="0"/>
			</rt_info>
			<input>
				<port id="0">
					<dim>1</dim>
					<dim>48</dim>
					<dim>160</dim>
					<dim>160</dim>
				</port>
				<port id="1">
					<dim>1</dim>
					<dim>48</dim>
					<dim>1</dim>
					<dim>1</dim>
				</port>
			</input>
			<output>
				<port id="2" names="175" precision="FP32">
					<dim>1</dim>
					<dim>48</dim>
					<dim>160</dim>
					<dim>160</dim>
				</port>
			</output>
		</layer>
		<layer id="168" name="Mul_11" type="Swish" version="opset4">
			<rt_info>
				<attribute name="fused_names" value="Mul_11, Sigmoid_10" version="0"/>
			</rt_info>
			<input>
				<port id="0">
					<dim>1</dim>
					<dim>48</dim>
					<dim>160</dim>
					<dim>160</dim>
				</port>
			</input>
			<output>
				<port id="1" names="177" precision="FP32">
					<dim>1</dim>
					<dim>48</dim>
					<dim>160</dim>
					<dim>160</dim>
				</port>
			</output>
		</layer>
		<layer id="169" name="Conv_12/WithoutBiases/fq_input_0" type="FakeQuantize" version="opset1">
			<data auto_broadcast="numpy" levels="256"/>
			<input>
				<port id="0">
					<dim>1</dim>
					<dim>48</dim>
					<dim>160</dim>
					<dim>160</dim>
				</port>
				<port id="1">
					<dim>1</dim>
					<dim>1</dim>
					<dim>1</dim>
					<dim>1</dim>
				</port>
				<port id="2">
					<dim>1</dim>
					<dim>1</dim>
					<dim>1</dim>
					<dim>1</dim>
				</port>
				<port id="3">
					<dim>1</dim>
					<dim>1</dim>
					<dim>1</dim>
					<dim>1</dim>
				</port>
				<port id="4">
					<dim>1</dim>
					<dim>1</dim>
					<dim>1</dim>
					<dim>1</dim>
				</port>
			</input>
			<output>
				<port id="5" precision="FP32">
					<dim>1</dim>
					<dim>48</dim>
					<dim>160</dim>
					<dim>160</dim>
				</port>
			</output>
		</layer>
		<layer id="170" name="model.2.m.0.cv2.conv.weight61510401/quantized1293420350" type="Const" version="opset1">
			<data element_type="i8" offset="56640" shape="48,48,3,3" size="20736"/>
			<output>
				<port id="0" precision="I8">
					<dim>48</dim>
					<dim>48</dim>
					<dim>3</dim>
					<dim>3</dim>
				</port>
			</output>
		</layer>
		<layer id="171" name="model.2.m.0.cv2.conv.weight61510401/quantized/to_f32" type="Convert" version="opset1">
			<data destination_type="f32"/>
			<input>
				<port id="0">
					<dim>48</dim>
					<dim>48</dim>
					<dim>3</dim>
					<dim>3</dim>
				</port>
			</input>
			<output>
				<port id="1" precision="FP32">
					<dim>48</dim>
					<dim>48</dim>
					<dim>3</dim>
					<dim>3</dim>
				</port>
			</output>
		</layer>
		<layer id="172" name="Conv_12/WithoutBiases/fq_weights_1/zero_point1295320200" type="Const" version="opset1">
			<data element_type="f32" offset="77376" shape="48,1,1,1" size="192"/>
			<output>
				<port id="0" precision="FP32">
					<dim>48</dim>
					<dim>1</dim>
					<dim>1</dim>
					<dim>1</dim>
				</port>
			</output>
		</layer>
		<layer id="173" name="Conv_12/WithoutBiases/fq_weights_1/minus_zp" type="Subtract" version="opset1">
			<data auto_broadcast="numpy"/>
			<input>
				<port id="0">
					<dim>48</dim>
					<dim>48</dim>
					<dim>3</dim>
					<dim>3</dim>
				</port>
				<port id="1">
					<dim>48</dim>
					<dim>1</dim>
					<dim>1</dim>
					<dim>1</dim>
				</port>
			</input>
			<output>
				<port id="2" precision="FP32">
					<dim>48</dim>
					<dim>48</dim>
					<dim>3</dim>
					<dim>3</dim>
				</port>
			</output>
		</layer>
		<layer id="174" name="Conv_12/WithoutBiases/fq_weights_1/scale1294219624" type="Const" version="opset1">
			<data element_type="f32" offset="77568" shape="48,1,1,1" size="192"/>
			<output>
				<port id="0" precision="FP32">
					<dim>48</dim>
					<dim>1</dim>
					<dim>1</dim>
					<dim>1</dim>
				</port>
			</output>
		</layer>
		<layer id="175" name="Conv_12/WithoutBiases/fq_weights_1/mulpiply_by_scale" type="Multiply" version="opset1">
			<data auto_broadcast="numpy"/>
			<input>
				<port id="0">
					<dim>48</dim>
					<dim>48</dim>
					<dim>3</dim>
					<dim>3</dim>
				</port>
				<port id="1">
					<dim>48</dim>
					<dim>1</dim>
					<dim>1</dim>
					<dim>1</dim>
				</port>
			</input>
			<output>
				<port id="2" precision="FP32">
					<dim>48</dim>
					<dim>48</dim>
					<dim>3</dim>
					<dim>3</dim>
				</port>
			</output>
		</layer>
		<layer id="176" name="Conv_12/WithoutBiases" type="Convolution" version="opset1">
			<data auto_pad="explicit" dilations="1,1" pads_begin="1,1" pads_end="1,1" strides="1,1"/>
			<rt_info>
				<attribute name="fused_names" value="Conv_12/WithoutBiases" version="0"/>
			</rt_info>
			<input>
				<port id="0">
					<dim>1</dim>
					<dim>48</dim>
					<dim>160</dim>
					<dim>160</dim>
				</port>
				<port id="1">
					<dim>48</dim>
					<dim>48</dim>
					<dim>3</dim>
					<dim>3</dim>
				</port>
			</input>
			<output>
				<port id="2" precision="FP32">
					<dim>1</dim>
					<dim>48</dim>
					<dim>160</dim>
					<dim>160</dim>
				</port>
			</output>
		</layer>
		<layer id="177" name="Reshape_39961719741" type="Const" version="opset1">
			<data element_type="f32" offset="77760" shape="1,48,1,1" size="192"/>
			<output>
				<port id="0" precision="FP32">
					<dim>1</dim>
					<dim>48</dim>
					<dim>1</dim>
					<dim>1</dim>
				</port>
			</output>
		</layer>
		<layer id="178" name="Conv_12" type="Add" version="opset1">
			<data auto_broadcast="numpy"/>
			<rt_info>
				<attribute name="fused_names" value="Concat_398, Conv_12, Reshape_399" version="0"/>
			</rt_info>
			<input>
				<port id="0">
					<dim>1</dim>
					<dim>48</dim>
					<dim>160</dim>
					<dim>160</dim>
				</port>
				<port id="1">
					<dim>1</dim>
					<dim>48</dim>
					<dim>1</dim>
					<dim>1</dim>
				</port>
			</input>
			<output>
				<port id="2" names="178" precision="FP32">
					<dim>1</dim>
					<dim>48</dim>
					<dim>160</dim>
					<dim>160</dim>
				</port>
			</output>
		</layer>
		<layer id="179" name="Mul_14" type="Swish" version="opset4">
			<rt_info>
				<attribute name="fused_names" value="Mul_14, Sigmoid_13" version="0"/>
			</rt_info>
			<input>
				<port id="0">
					<dim>1</dim>
					<dim>48</dim>
					<dim>160</dim>
					<dim>160</dim>
				</port>
			</input>
			<output>
				<port id="1" names="180" precision="FP32">
					<dim>1</dim>
					<dim>48</dim>
					<dim>160</dim>
					<dim>160</dim>
				</port>
			</output>
		</layer>
		<layer id="180" name="Add_15/fq_input_1" type="FakeQuantize" version="opset1">
			<data auto_broadcast="numpy" levels="256"/>
			<input>
				<port id="0">
					<dim>1</dim>
					<dim>48</dim>
					<dim>160</dim>
					<dim>160</dim>
				</port>
				<port id="1">
					<dim>1</dim>
					<dim>1</dim>
					<dim>1</dim>
					<dim>1</dim>
				</port>
				<port id="2">
					<dim>1</dim>
					<dim>1</dim>
					<dim>1</dim>
					<dim>1</dim>
				</port>
				<port id="3">
					<dim>1</dim>
					<dim>1</dim>
					<dim>1</dim>
					<dim>1</dim>
				</port>
				<port id="4">
					<dim>1</dim>
					<dim>1</dim>
					<dim>1</dim>
					<dim>1</dim>
				</port>
			</input>
			<output>
				<port id="5" precision="FP32">
					<dim>1</dim>
					<dim>48</dim>
					<dim>160</dim>
					<dim>160</dim>
				</port>
			</output>
		</layer>
		<layer id="181" name="Add_15" type="Add" version="opset1">
			<data auto_broadcast="numpy"/>
			<rt_info>
				<attribute name="fused_names" value="Add_15" version="0"/>
			</rt_info>
			<input>
				<port id="0">
					<dim>1</dim>
					<dim>48</dim>
					<dim>160</dim>
					<dim>160</dim>
				</port>
				<port id="1">
					<dim>1</dim>
					<dim>48</dim>
					<dim>160</dim>
					<dim>160</dim>
				</port>
			</input>
			<output>
				<port id="2" names="181" precision="FP32">
					<dim>1</dim>
					<dim>48</dim>
					<dim>160</dim>
					<dim>160</dim>
				</port>
			</output>
		</layer>
		<layer id="182" name="Add_22/fq_input_0" type="FakeQuantize" version="opset1">
			<data auto_broadcast="numpy" levels="256"/>
			<input>
				<port id="0">
					<dim>1</dim>
					<dim>48</dim>
					<dim>160</dim>
					<dim>160</dim>
				</port>
				<port id="1">
					<dim>1</dim>
					<dim>1</dim>
					<dim>1</dim>
					<dim>1</dim>
				</port>
				<port id="2">
					<dim>1</dim>
					<dim>1</dim>
					<dim>1</dim>
					<dim>1</dim>
				</port>
				<port id="3">
					<dim>1</dim>
					<dim>1</dim>
					<dim>1</dim>
					<dim>1</dim>
				</port>
				<port id="4">
					<dim>1</dim>
					<dim>1</dim>
					<dim>1</dim>
					<dim>1</dim>
				</port>
			</input>
			<output>
				<port id="5" precision="FP32">
					<dim>1</dim>
					<dim>48</dim>
					<dim>160</dim>
					<dim>160</dim>
				</port>
			</output>
		</layer>
		<layer id="183" name="2696270018472" type="Const" version="opset1">
			<data element_type="f32" offset="0" shape="1,1,1,1" size="4"/>
			<output>
				<port id="0" precision="FP32">
					<dim>1</dim>
					<dim>1</dim>
					<dim>1</dim>
					<dim>1</dim>
				</port>
			</output>
		</layer>
		<layer id="184" name="2697270119459" type="Const" version="opset1">
			<data element_type="f32" offset="77952" shape="1,1,1,1" size="4"/>
			<output>
				<port id="0" precision="FP32">
					<dim>1</dim>
					<dim>1</dim>
					<dim>1</dim>
					<dim>1</dim>
				</port>
			</output>
		</layer>
		<layer id="185" name="2698270220071" type="Const" version="opset1">
			<data element_type="f32" offset="0" shape="1,1,1,1" size="4"/>
			<output>
				<port id="0" precision="FP32">
					<dim>1</dim>
					<dim>1</dim>
					<dim>1</dim>
					<dim>1</dim>
				</port>
			</output>
		</layer>
		<layer id="186" name="2699270320167" type="Const" version="opset1">
			<data element_type="f32" offset="77952" shape="1,1,1,1" size="4"/>
			<output>
				<port id="0" precision="FP32">
					<dim>1</dim>
					<dim>1</dim>
					<dim>1</dim>
					<dim>1</dim>
				</port>
			</output>
		</layer>
		<layer id="187" name="2956296019321" type="Const" version="opset1">
			<data element_type="f32" offset="0" shape="1,1,1,1" size="4"/>
			<output>
				<port id="0" precision="FP32">
					<dim>1</dim>
					<dim>1</dim>
					<dim>1</dim>
					<dim>1</dim>
				</port>
			</output>
		</layer>
		<layer id="188" name="2957296119999" type="Const" version="opset1">
			<data element_type="f32" offset="8" shape="1,1,1,1" size="4"/>
			<output>
				<port id="0" precision="FP32">
					<dim>1</dim>
					<dim>1</dim>
					<dim>1</dim>
					<dim>1</dim>
				</port>
			</output>
		</layer>
		<layer id="189" name="2958296219957" type="Const" version="opset1">
			<data element_type="f32" offset="0" shape="1,1,1,1" size="4"/>
			<output>
				<port id="0" precision="FP32">
					<dim>1</dim>
					<dim>1</dim>
					<dim>1</dim>
					<dim>1</dim>
				</port>
			</output>
		</layer>
		<layer id="190" name="2959296319651" type="Const" version="opset1">
			<data element_type="f32" offset="8" shape="1,1,1,1" size="4"/>
			<output>
				<port id="0" precision="FP32">
					<dim>1</dim>
					<dim>1</dim>
					<dim>1</dim>
					<dim>1</dim>
				</port>
			</output>
		</layer>
		<layer id="191" name="model.2.m.1.cv1.conv.weight62110403/quantized1278419000" type="Const" version="opset1">
			<data element_type="i8" offset="77956" shape="48,48,1,1" size="2304"/>
			<output>
				<port id="0" precision="I8">
					<dim>48</dim>
					<dim>48</dim>
					<dim>1</dim>
					<dim>1</dim>
				</port>
			</output>
		</layer>
		<layer id="192" name="model.2.m.1.cv1.conv.weight62110403/quantized/to_f32" type="Convert" version="opset1">
			<data destination_type="f32"/>
			<input>
				<port id="0">
					<dim>48</dim>
					<dim>48</dim>
					<dim>1</dim>
					<dim>1</dim>
				</port>
			</input>
			<output>
				<port id="1" precision="FP32">
					<dim>48</dim>
					<dim>48</dim>
					<dim>1</dim>
					<dim>1</dim>
				</port>
			</output>
		</layer>
		<layer id="193" name="Conv_16/WithoutBiases/fq_weights_1/zero_point1280319378" type="Const" version="opset1">
			<data element_type="f32" offset="80260" shape="48,1,1,1" size="192"/>
			<output>
				<port id="0" precision="FP32">
					<dim>48</dim>
					<dim>1</dim>
					<dim>1</dim>
					<dim>1</dim>
				</port>
			</output>
		</layer>
		<layer id="194" name="Conv_16/WithoutBiases/fq_weights_1/minus_zp" type="Subtract" version="opset1">
			<data auto_broadcast="numpy"/>
			<input>
				<port id="0">
					<dim>48</dim>
					<dim>48</dim>
					<dim>1</dim>
					<dim>1</dim>
				</port>
				<port id="1">
					<dim>48</dim>
					<dim>1</dim>
					<dim>1</dim>
					<dim>1</dim>
				</port>
			</input>
			<output>
				<port id="2" precision="FP32">
					<dim>48</dim>
					<dim>48</dim>
					<dim>1</dim>
					<dim>1</dim>
				</port>
			</output>
		</layer>
		<layer id="195" name="Conv_16/WithoutBiases/fq_weights_1/scale1279219870" type="Const" version="opset1">
			<data element_type="f32" offset="80452" shape="48,1,1,1" size="192"/>
			<output>
				<port id="0" precision="FP32">
					<dim>48</dim>
					<dim>1</dim>
					<dim>1</dim>
					<dim>1</dim>
				</port>
			</output>
		</layer>
		<layer id="196" name="Conv_16/WithoutBiases/fq_weights_1/mulpiply_by_scale" type="Multiply" version="opset1">
			<data auto_broadcast="numpy"/>
			<input>
				<port id="0">
					<dim>48</dim>
					<dim>48</dim>
					<dim>1</dim>
					<dim>1</dim>
				</port>
				<port id="1">
					<dim>48</dim>
					<dim>1</dim>
					<dim>1</dim>
					<dim>1</dim>
				</port>
			</input>
			<output>
				<port id="2" precision="FP32">
					<dim>48</dim>
					<dim>48</dim>
					<dim>1</dim>
					<dim>1</dim>
				</port>
			</output>
		</layer>
		<layer id="197" name="Conv_16/WithoutBiases" type="Convolution" version="opset1">
			<data auto_pad="explicit" dilations="1,1" pads_begin="0,0" pads_end="0,0" strides="1,1"/>
			<rt_info>
				<attribute name="fused_names" value="Conv_16/WithoutBiases" version="0"/>
			</rt_info>
			<input>
				<port id="0">
					<dim>1</dim>
					<dim>48</dim>
					<dim>160</dim>
					<dim>160</dim>
				</port>
				<port id="1">
					<dim>48</dim>
					<dim>48</dim>
					<dim>1</dim>
					<dim>1</dim>
				</port>
			</input>
			<output>
				<port id="2" precision="FP32">
					<dim>1</dim>
					<dim>48</dim>
					<dim>160</dim>
					<dim>160</dim>
				</port>
			</output>
		</layer>
		<layer id="198" name="Reshape_45062320281" type="Const" version="opset1">
			<data element_type="f32" offset="80644" shape="1,48,1,1" size="192"/>
			<output>
				<port id="0" precision="FP32">
					<dim>1</dim>
					<dim>48</dim>
					<dim>1</dim>
					<dim>1</dim>
				</port>
			</output>
		</layer>
		<layer id="199" name="Conv_16" type="Add" version="opset1">
			<data auto_broadcast="numpy"/>
			<rt_info>
				<attribute name="fused_names" value="Concat_449, Conv_16, Reshape_450" version="0"/>
			</rt_info>
			<input>
				<port id="0">
					<dim>1</dim>
					<dim>48</dim>
					<dim>160</dim>
					<dim>160</dim>
				</port>
				<port id="1">
					<dim>1</dim>
					<dim>48</dim>
					<dim>1</dim>
					<dim>1</dim>
				</port>
			</input>
			<output>
				<port id="2" names="182" precision="FP32">
					<dim>1</dim>
					<dim>48</dim>
					<dim>160</dim>
					<dim>160</dim>
				</port>
			</output>
		</layer>
		<layer id="200" name="Mul_18" type="Swish" version="opset4">
			<rt_info>
				<attribute name="fused_names" value="Mul_18, Sigmoid_17" version="0"/>
			</rt_info>
			<input>
				<port id="0">
					<dim>1</dim>
					<dim>48</dim>
					<dim>160</dim>
					<dim>160</dim>
				</port>
			</input>
			<output>
				<port id="1" names="184" precision="FP32">
					<dim>1</dim>
					<dim>48</dim>
					<dim>160</dim>
					<dim>160</dim>
				</port>
			</output>
		</layer>
		<layer id="201" name="Conv_19/WithoutBiases/fq_input_0" type="FakeQuantize" version="opset1">
			<data auto_broadcast="numpy" levels="256"/>
			<input>
				<port id="0">
					<dim>1</dim>
					<dim>48</dim>
					<dim>160</dim>
					<dim>160</dim>
				</port>
				<port id="1">
					<dim>1</dim>
					<dim>1</dim>
					<dim>1</dim>
					<dim>1</dim>
				</port>
				<port id="2">
					<dim>1</dim>
					<dim>1</dim>
					<dim>1</dim>
					<dim>1</dim>
				</port>
				<port id="3">
					<dim>1</dim>
					<dim>1</dim>
					<dim>1</dim>
					<dim>1</dim>
				</port>
				<port id="4">
					<dim>1</dim>
					<dim>1</dim>
					<dim>1</dim>
					<dim>1</dim>
				</port>
			</input>
			<output>
				<port id="5" precision="FP32">
					<dim>1</dim>
					<dim>48</dim>
					<dim>160</dim>
					<dim>160</dim>
				</port>
			</output>
		</layer>
		<layer id="202" name="model.2.m.1.cv2.conv.weight62610405/quantized1191418382" type="Const" version="opset1">
			<data element_type="i8" offset="80836" shape="48,48,3,3" size="20736"/>
			<output>
				<port id="0" precision="I8">
					<dim>48</dim>
					<dim>48</dim>
					<dim>3</dim>
					<dim>3</dim>
				</port>
			</output>
		</layer>
		<layer id="203" name="model.2.m.1.cv2.conv.weight62610405/quantized/to_f32" type="Convert" version="opset1">
			<data destination_type="f32"/>
			<input>
				<port id="0">
					<dim>48</dim>
					<dim>48</dim>
					<dim>3</dim>
					<dim>3</dim>
				</port>
			</input>
			<output>
				<port id="1" precision="FP32">
					<dim>48</dim>
					<dim>48</dim>
					<dim>3</dim>
					<dim>3</dim>
				</port>
			</output>
		</layer>
		<layer id="204" name="Conv_19/WithoutBiases/fq_weights_1/zero_point1193319666" type="Const" version="opset1">
			<data element_type="f32" offset="101572" shape="48,1,1,1" size="192"/>
			<output>
				<port id="0" precision="FP32">
					<dim>48</dim>
					<dim>1</dim>
					<dim>1</dim>
					<dim>1</dim>
				</port>
			</output>
		</layer>
		<layer id="205" name="Conv_19/WithoutBiases/fq_weights_1/minus_zp" type="Subtract" version="opset1">
			<data auto_broadcast="numpy"/>
			<input>
				<port id="0">
					<dim>48</dim>
					<dim>48</dim>
					<dim>3</dim>
					<dim>3</dim>
				</port>
				<port id="1">
					<dim>48</dim>
					<dim>1</dim>
					<dim>1</dim>
					<dim>1</dim>
				</port>
			</input>
			<output>
				<port id="2" precision="FP32">
					<dim>48</dim>
					<dim>48</dim>
					<dim>3</dim>
					<dim>3</dim>
				</port>
			</output>
		</layer>
		<layer id="206" name="Conv_19/WithoutBiases/fq_weights_1/scale1192219414" type="Const" version="opset1">
			<data element_type="f32" offset="101764" shape="48,1,1,1" size="192"/>
			<output>
				<port id="0" precision="FP32">
					<dim>48</dim>
					<dim>1</dim>
					<dim>1</dim>
					<dim>1</dim>
				</port>
			</output>
		</layer>
		<layer id="207" name="Conv_19/WithoutBiases/fq_weights_1/mulpiply_by_scale" type="Multiply" version="opset1">
			<data auto_broadcast="numpy"/>
			<input>
				<port id="0">
					<dim>48</dim>
					<dim>48</dim>
					<dim>3</dim>
					<dim>3</dim>
				</port>
				<port id="1">
					<dim>48</dim>
					<dim>1</dim>
					<dim>1</dim>
					<dim>1</dim>
				</port>
			</input>
			<output>
				<port id="2" precision="FP32">
					<dim>48</dim>
					<dim>48</dim>
					<dim>3</dim>
					<dim>3</dim>
				</port>
			</output>
		</layer>
		<layer id="208" name="Conv_19/WithoutBiases" type="Convolution" version="opset1">
			<data auto_pad="explicit" dilations="1,1" pads_begin="1,1" pads_end="1,1" strides="1,1"/>
			<rt_info>
				<attribute name="fused_names" value="Conv_19/WithoutBiases" version="0"/>
			</rt_info>
			<input>
				<port id="0">
					<dim>1</dim>
					<dim>48</dim>
					<dim>160</dim>
					<dim>160</dim>
				</port>
				<port id="1">
					<dim>48</dim>
					<dim>48</dim>
					<dim>3</dim>
					<dim>3</dim>
				</port>
			</input>
			<output>
				<port id="2" precision="FP32">
					<dim>1</dim>
					<dim>48</dim>
					<dim>160</dim>
					<dim>160</dim>
				</port>
			</output>
		</layer>
		<layer id="209" name="Reshape_50062819033" type="Const" version="opset1">
			<data element_type="f32" offset="101956" shape="1,48,1,1" size="192"/>
			<output>
				<port id="0" precision="FP32">
					<dim>1</dim>
					<dim>48</dim>
					<dim>1</dim>
					<dim>1</dim>
				</port>
			</output>
		</layer>
		<layer id="210" name="Conv_19" type="Add" version="opset1">
			<data auto_broadcast="numpy"/>
			<rt_info>
				<attribute name="fused_names" value="Concat_499, Conv_19, Reshape_500" version="0"/>
			</rt_info>
			<input>
				<port id="0">
					<dim>1</dim>
					<dim>48</dim>
					<dim>160</dim>
					<dim>160</dim>
				</port>
				<port id="1">
					<dim>1</dim>
					<dim>48</dim>
					<dim>1</dim>
					<dim>1</dim>
				</port>
			</input>
			<output>
				<port id="2" names="185" precision="FP32">
					<dim>1</dim>
					<dim>48</dim>
					<dim>160</dim>
					<dim>160</dim>
				</port>
			</output>
		</layer>
		<layer id="211" name="Mul_21" type="Swish" version="opset4">
			<rt_info>
				<attribute name="fused_names" value="Mul_21, Sigmoid_20" version="0"/>
			</rt_info>
			<input>
				<port id="0">
					<dim>1</dim>
					<dim>48</dim>
					<dim>160</dim>
					<dim>160</dim>
				</port>
			</input>
			<output>
				<port id="1" names="187" precision="FP32">
					<dim>1</dim>
					<dim>48</dim>
					<dim>160</dim>
					<dim>160</dim>
				</port>
			</output>
		</layer>
		<layer id="212" name="Add_22/fq_input_1" type="FakeQuantize" version="opset1">
			<data auto_broadcast="numpy" levels="256"/>
			<input>
				<port id="0">
					<dim>1</dim>
					<dim>48</dim>
					<dim>160</dim>
					<dim>160</dim>
				</port>
				<port id="1">
					<dim>1</dim>
					<dim>1</dim>
					<dim>1</dim>
					<dim>1</dim>
				</port>
				<port id="2">
					<dim>1</dim>
					<dim>1</dim>
					<dim>1</dim>
					<dim>1</dim>
				</port>
				<port id="3">
					<dim>1</dim>
					<dim>1</dim>
					<dim>1</dim>
					<dim>1</dim>
				</port>
				<port id="4">
					<dim>1</dim>
					<dim>1</dim>
					<dim>1</dim>
					<dim>1</dim>
				</port>
			</input>
			<output>
				<port id="5" precision="FP32">
					<dim>1</dim>
					<dim>48</dim>
					<dim>160</dim>
					<dim>160</dim>
				</port>
			</output>
		</layer>
		<layer id="213" name="Add_22" type="Add" version="opset1">
			<data auto_broadcast="numpy"/>
			<rt_info>
				<attribute name="fused_names" value="Add_22" version="0"/>
			</rt_info>
			<input>
				<port id="0">
					<dim>1</dim>
					<dim>48</dim>
					<dim>160</dim>
					<dim>160</dim>
				</port>
				<port id="1">
					<dim>1</dim>
					<dim>48</dim>
					<dim>160</dim>
					<dim>160</dim>
				</port>
			</input>
			<output>
				<port id="2" names="188" precision="FP32">
					<dim>1</dim>
					<dim>48</dim>
					<dim>160</dim>
					<dim>160</dim>
				</port>
			</output>
		</layer>
		<layer id="214" name="Concat_26/fq_input_0" type="FakeQuantize" version="opset1">
			<data auto_broadcast="numpy" levels="256"/>
			<input>
				<port id="0">
					<dim>1</dim>
					<dim>48</dim>
					<dim>160</dim>
					<dim>160</dim>
				</port>
				<port id="1">
					<dim>1</dim>
					<dim>1</dim>
					<dim>1</dim>
					<dim>1</dim>
				</port>
				<port id="2">
					<dim>1</dim>
					<dim>1</dim>
					<dim>1</dim>
					<dim>1</dim>
				</port>
				<port id="3">
					<dim>1</dim>
					<dim>1</dim>
					<dim>1</dim>
					<dim>1</dim>
				</port>
				<port id="4">
					<dim>1</dim>
					<dim>1</dim>
					<dim>1</dim>
					<dim>1</dim>
				</port>
			</input>
			<output>
				<port id="5" precision="FP32">
					<dim>1</dim>
					<dim>48</dim>
					<dim>160</dim>
					<dim>160</dim>
				</port>
			</output>
		</layer>
		<layer id="215" name="5936594020047" type="Const" version="opset1">
			<data element_type="f32" offset="144" shape="1,1,1,1" size="4"/>
			<output>
				<port id="0" precision="FP32">
					<dim>1</dim>
					<dim>1</dim>
					<dim>1</dim>
					<dim>1</dim>
				</port>
			</output>
		</layer>
		<layer id="216" name="5937594120212" type="Const" version="opset1">
			<data element_type="f32" offset="148" shape="1,1,1,1" size="4"/>
			<output>
				<port id="0" precision="FP32">
					<dim>1</dim>
					<dim>1</dim>
					<dim>1</dim>
					<dim>1</dim>
				</port>
			</output>
		</layer>
		<layer id="217" name="5938594219591" type="Const" version="opset1">
			<data element_type="f32" offset="144" shape="1,1,1,1" size="4"/>
			<output>
				<port id="0" precision="FP32">
					<dim>1</dim>
					<dim>1</dim>
					<dim>1</dim>
					<dim>1</dim>
				</port>
			</output>
		</layer>
		<layer id="218" name="5939594319114" type="Const" version="opset1">
			<data element_type="f32" offset="148" shape="1,1,1,1" size="4"/>
			<output>
				<port id="0" precision="FP32">
					<dim>1</dim>
					<dim>1</dim>
					<dim>1</dim>
					<dim>1</dim>
				</port>
			</output>
		</layer>
		<layer id="219" name="model.2.cv2.conv.weight63210407/quantized1377418769" type="Const" version="opset1">
			<data element_type="i8" offset="102148" shape="48,96,1,1" size="4608"/>
			<output>
				<port id="0" precision="I8">
					<dim>48</dim>
					<dim>96</dim>
					<dim>1</dim>
					<dim>1</dim>
				</port>
			</output>
		</layer>
		<layer id="220" name="model.2.cv2.conv.weight63210407/quantized/to_f32" type="Convert" version="opset1">
			<data destination_type="f32"/>
			<input>
				<port id="0">
					<dim>48</dim>
					<dim>96</dim>
					<dim>1</dim>
					<dim>1</dim>
				</port>
			</input>
			<output>
				<port id="1" precision="FP32">
					<dim>48</dim>
					<dim>96</dim>
					<dim>1</dim>
					<dim>1</dim>
				</port>
			</output>
		</layer>
		<layer id="221" name="Conv_23/WithoutBiases/fq_weights_1/zero_point1379319030" type="Const" version="opset1">
			<data element_type="f32" offset="106756" shape="48,1,1,1" size="192"/>
			<output>
				<port id="0" precision="FP32">
					<dim>48</dim>
					<dim>1</dim>
					<dim>1</dim>
					<dim>1</dim>
				</port>
			</output>
		</layer>
		<layer id="222" name="Conv_23/WithoutBiases/fq_weights_1/minus_zp" type="Subtract" version="opset1">
			<data auto_broadcast="numpy"/>
			<input>
				<port id="0">
					<dim>48</dim>
					<dim>96</dim>
					<dim>1</dim>
					<dim>1</dim>
				</port>
				<port id="1">
					<dim>48</dim>
					<dim>1</dim>
					<dim>1</dim>
					<dim>1</dim>
				</port>
			</input>
			<output>
				<port id="2" precision="FP32">
					<dim>48</dim>
					<dim>96</dim>
					<dim>1</dim>
					<dim>1</dim>
				</port>
			</output>
		</layer>
		<layer id="223" name="Conv_23/WithoutBiases/fq_weights_1/scale1378218061" type="Const" version="opset1">
			<data element_type="f32" offset="106948" shape="48,1,1,1" size="192"/>
			<output>
				<port id="0" precision="FP32">
					<dim>48</dim>
					<dim>1</dim>
					<dim>1</dim>
					<dim>1</dim>
				</port>
			</output>
		</layer>
		<layer id="224" name="Conv_23/WithoutBiases/fq_weights_1/mulpiply_by_scale" type="Multiply" version="opset1">
			<data auto_broadcast="numpy"/>
			<input>
				<port id="0">
					<dim>48</dim>
					<dim>96</dim>
					<dim>1</dim>
					<dim>1</dim>
				</port>
				<port id="1">
					<dim>48</dim>
					<dim>1</dim>
					<dim>1</dim>
					<dim>1</dim>
				</port>
			</input>
			<output>
				<port id="2" precision="FP32">
					<dim>48</dim>
					<dim>96</dim>
					<dim>1</dim>
					<dim>1</dim>
				</port>
			</output>
		</layer>
		<layer id="225" name="Conv_23/WithoutBiases" type="Convolution" version="opset1">
			<data auto_pad="explicit" dilations="1,1" pads_begin="0,0" pads_end="0,0" strides="1,1"/>
			<rt_info>
				<attribute name="fused_names" value="Conv_23/WithoutBiases" version="0"/>
			</rt_info>
			<input>
				<port id="0">
					<dim>1</dim>
					<dim>96</dim>
					<dim>160</dim>
					<dim>160</dim>
				</port>
				<port id="1">
					<dim>48</dim>
					<dim>96</dim>
					<dim>1</dim>
					<dim>1</dim>
				</port>
			</input>
			<output>
				<port id="2" precision="FP32">
					<dim>1</dim>
					<dim>48</dim>
					<dim>160</dim>
					<dim>160</dim>
				</port>
			</output>
		</layer>
		<layer id="226" name="Reshape_55163417998" type="Const" version="opset1">
			<data element_type="f32" offset="107140" shape="1,48,1,1" size="192"/>
			<output>
				<port id="0" precision="FP32">
					<dim>1</dim>
					<dim>48</dim>
					<dim>1</dim>
					<dim>1</dim>
				</port>
			</output>
		</layer>
		<layer id="227" name="Conv_23" type="Add" version="opset1">
			<data auto_broadcast="numpy"/>
			<rt_info>
				<attribute name="fused_names" value="Concat_550, Conv_23, Reshape_551" version="0"/>
			</rt_info>
			<input>
				<port id="0">
					<dim>1</dim>
					<dim>48</dim>
					<dim>160</dim>
					<dim>160</dim>
				</port>
				<port id="1">
					<dim>1</dim>
					<dim>48</dim>
					<dim>1</dim>
					<dim>1</dim>
				</port>
			</input>
			<output>
				<port id="2" names="189" precision="FP32">
					<dim>1</dim>
					<dim>48</dim>
					<dim>160</dim>
					<dim>160</dim>
				</port>
			</output>
		</layer>
		<layer id="228" name="Mul_25" type="Swish" version="opset4">
			<rt_info>
				<attribute name="fused_names" value="Mul_25, Sigmoid_24" version="0"/>
			</rt_info>
			<input>
				<port id="0">
					<dim>1</dim>
					<dim>48</dim>
					<dim>160</dim>
					<dim>160</dim>
				</port>
			</input>
			<output>
				<port id="1" names="191" precision="FP32">
					<dim>1</dim>
					<dim>48</dim>
					<dim>160</dim>
					<dim>160</dim>
				</port>
			</output>
		</layer>
		<layer id="229" name="Concat_26/fq_input_1" type="FakeQuantize" version="opset1">
			<data auto_broadcast="numpy" levels="256"/>
			<input>
				<port id="0">
					<dim>1</dim>
					<dim>48</dim>
					<dim>160</dim>
					<dim>160</dim>
				</port>
				<port id="1">
					<dim>1</dim>
					<dim>1</dim>
					<dim>1</dim>
					<dim>1</dim>
				</port>
				<port id="2">
					<dim>1</dim>
					<dim>1</dim>
					<dim>1</dim>
					<dim>1</dim>
				</port>
				<port id="3">
					<dim>1</dim>
					<dim>1</dim>
					<dim>1</dim>
					<dim>1</dim>
				</port>
				<port id="4">
					<dim>1</dim>
					<dim>1</dim>
					<dim>1</dim>
					<dim>1</dim>
				</port>
			</input>
			<output>
				<port id="5" precision="FP32">
					<dim>1</dim>
					<dim>48</dim>
					<dim>160</dim>
					<dim>160</dim>
				</port>
			</output>
		</layer>
		<layer id="230" name="Concat_26" type="Concat" version="opset1">
			<data axis="1"/>
			<rt_info>
				<attribute name="fused_names" value="Concat_26" version="0"/>
			</rt_info>
			<input>
				<port id="0">
					<dim>1</dim>
					<dim>48</dim>
					<dim>160</dim>
					<dim>160</dim>
				</port>
				<port id="1">
					<dim>1</dim>
					<dim>48</dim>
					<dim>160</dim>
					<dim>160</dim>
				</port>
			</input>
			<output>
				<port id="2" names="192" precision="FP32">
					<dim>1</dim>
					<dim>96</dim>
					<dim>160</dim>
					<dim>160</dim>
				</port>
			</output>
		</layer>
		<layer id="231" name="model.2.cv3.conv.weight63810409/quantized1164418499" type="Const" version="opset1">
			<data element_type="i8" offset="107332" shape="96,96,1,1" size="9216"/>
			<output>
				<port id="0" precision="I8">
					<dim>96</dim>
					<dim>96</dim>
					<dim>1</dim>
					<dim>1</dim>
				</port>
			</output>
		</layer>
		<layer id="232" name="model.2.cv3.conv.weight63810409/quantized/to_f32" type="Convert" version="opset1">
			<data destination_type="f32"/>
			<input>
				<port id="0">
					<dim>96</dim>
					<dim>96</dim>
					<dim>1</dim>
					<dim>1</dim>
				</port>
			</input>
			<output>
				<port id="1" precision="FP32">
					<dim>96</dim>
					<dim>96</dim>
					<dim>1</dim>
					<dim>1</dim>
				</port>
			</output>
		</layer>
		<layer id="233" name="Conv_27/WithoutBiases/fq_weights_1/zero_point1166318589" type="Const" version="opset1">
			<data element_type="f32" offset="116548" shape="96,1,1,1" size="384"/>
			<output>
				<port id="0" precision="FP32">
					<dim>96</dim>
					<dim>1</dim>
					<dim>1</dim>
					<dim>1</dim>
				</port>
			</output>
		</layer>
		<layer id="234" name="Conv_27/WithoutBiases/fq_weights_1/minus_zp" type="Subtract" version="opset1">
			<data auto_broadcast="numpy"/>
			<input>
				<port id="0">
					<dim>96</dim>
					<dim>96</dim>
					<dim>1</dim>
					<dim>1</dim>
				</port>
				<port id="1">
					<dim>96</dim>
					<dim>1</dim>
					<dim>1</dim>
					<dim>1</dim>
				</port>
			</input>
			<output>
				<port id="2" precision="FP32">
					<dim>96</dim>
					<dim>96</dim>
					<dim>1</dim>
					<dim>1</dim>
				</port>
			</output>
		</layer>
		<layer id="235" name="Conv_27/WithoutBiases/fq_weights_1/scale1165218421" type="Const" version="opset1">
			<data element_type="f32" offset="116932" shape="96,1,1,1" size="384"/>
			<output>
				<port id="0" precision="FP32">
					<dim>96</dim>
					<dim>1</dim>
					<dim>1</dim>
					<dim>1</dim>
				</port>
			</output>
		</layer>
		<layer id="236" name="Conv_27/WithoutBiases/fq_weights_1/mulpiply_by_scale" type="Multiply" version="opset1">
			<data auto_broadcast="numpy"/>
			<input>
				<port id="0">
					<dim>96</dim>
					<dim>96</dim>
					<dim>1</dim>
					<dim>1</dim>
				</port>
				<port id="1">
					<dim>96</dim>
					<dim>1</dim>
					<dim>1</dim>
					<dim>1</dim>
				</port>
			</input>
			<output>
				<port id="2" precision="FP32">
					<dim>96</dim>
					<dim>96</dim>
					<dim>1</dim>
					<dim>1</dim>
				</port>
			</output>
		</layer>
		<layer id="237" name="Conv_27/WithoutBiases" type="Convolution" version="opset1">
			<data auto_pad="explicit" dilations="1,1" pads_begin="0,0" pads_end="0,0" strides="1,1"/>
			<rt_info>
				<attribute name="fused_names" value="Conv_27/WithoutBiases" version="0"/>
			</rt_info>
			<input>
				<port id="0">
					<dim>1</dim>
					<dim>96</dim>
					<dim>160</dim>
					<dim>160</dim>
				</port>
				<port id="1">
					<dim>96</dim>
					<dim>96</dim>
					<dim>1</dim>
					<dim>1</dim>
				</port>
			</input>
			<output>
				<port id="2" precision="FP32">
					<dim>1</dim>
					<dim>96</dim>
					<dim>160</dim>
					<dim>160</dim>
				</port>
			</output>
		</layer>
		<layer id="238" name="Reshape_60264018373" type="Const" version="opset1">
			<data element_type="f32" offset="117316" shape="1,96,1,1" size="384"/>
			<output>
				<port id="0" precision="FP32">
					<dim>1</dim>
					<dim>96</dim>
					<dim>1</dim>
					<dim>1</dim>
				</port>
			</output>
		</layer>
		<layer id="239" name="Conv_27" type="Add" version="opset1">
			<data auto_broadcast="numpy"/>
			<rt_info>
				<attribute name="fused_names" value="Concat_601, Conv_27, Reshape_602" version="0"/>
			</rt_info>
			<input>
				<port id="0">
					<dim>1</dim>
					<dim>96</dim>
					<dim>160</dim>
					<dim>160</dim>
				</port>
				<port id="1">
					<dim>1</dim>
					<dim>96</dim>
					<dim>1</dim>
					<dim>1</dim>
				</port>
			</input>
			<output>
				<port id="2" names="193" precision="FP32">
					<dim>1</dim>
					<dim>96</dim>
					<dim>160</dim>
					<dim>160</dim>
				</port>
			</output>
		</layer>
		<layer id="240" name="Mul_29" type="Swish" version="opset4">
			<rt_info>
				<attribute name="fused_names" value="Mul_29, Sigmoid_28" version="0"/>
			</rt_info>
			<input>
				<port id="0">
					<dim>1</dim>
					<dim>96</dim>
					<dim>160</dim>
					<dim>160</dim>
				</port>
			</input>
			<output>
				<port id="1" names="195" precision="FP32">
					<dim>1</dim>
					<dim>96</dim>
					<dim>160</dim>
					<dim>160</dim>
				</port>
			</output>
		</layer>
		<layer id="241" name="Conv_30/WithoutBiases/fq_input_0" type="FakeQuantize" version="opset1">
			<data auto_broadcast="numpy" levels="256"/>
			<input>
				<port id="0">
					<dim>1</dim>
					<dim>96</dim>
					<dim>160</dim>
					<dim>160</dim>
				</port>
				<port id="1">
					<dim>1</dim>
					<dim>1</dim>
					<dim>1</dim>
					<dim>1</dim>
				</port>
				<port id="2">
					<dim>1</dim>
					<dim>1</dim>
					<dim>1</dim>
					<dim>1</dim>
				</port>
				<port id="3">
					<dim>1</dim>
					<dim>1</dim>
					<dim>1</dim>
					<dim>1</dim>
				</port>
				<port id="4">
					<dim>1</dim>
					<dim>1</dim>
					<dim>1</dim>
					<dim>1</dim>
				</port>
			</input>
			<output>
				<port id="5" precision="FP32">
					<dim>1</dim>
					<dim>96</dim>
					<dim>160</dim>
					<dim>160</dim>
				</port>
			</output>
		</layer>
		<layer id="242" name="model.3.conv.weight64310411/quantized1170420356" type="Const" version="opset1">
			<data element_type="i8" offset="117700" shape="192,96,3,3" size="165888"/>
			<output>
				<port id="0" precision="I8">
					<dim>192</dim>
					<dim>96</dim>
					<dim>3</dim>
					<dim>3</dim>
				</port>
			</output>
		</layer>
		<layer id="243" name="model.3.conv.weight64310411/quantized/to_f32" type="Convert" version="opset1">
			<data destination_type="f32"/>
			<input>
				<port id="0">
					<dim>192</dim>
					<dim>96</dim>
					<dim>3</dim>
					<dim>3</dim>
				</port>
			</input>
			<output>
				<port id="1" precision="FP32">
					<dim>192</dim>
					<dim>96</dim>
					<dim>3</dim>
					<dim>3</dim>
				</port>
			</output>
		</layer>
		<layer id="244" name="Conv_30/WithoutBiases/fq_weights_1/zero_point1172319762" type="Const" version="opset1">
			<data element_type="f32" offset="283588" shape="192,1,1,1" size="768"/>
			<output>
				<port id="0" precision="FP32">
					<dim>192</dim>
					<dim>1</dim>
					<dim>1</dim>
					<dim>1</dim>
				</port>
			</output>
		</layer>
		<layer id="245" name="Conv_30/WithoutBiases/fq_weights_1/minus_zp" type="Subtract" version="opset1">
			<data auto_broadcast="numpy"/>
			<input>
				<port id="0">
					<dim>192</dim>
					<dim>96</dim>
					<dim>3</dim>
					<dim>3</dim>
				</port>
				<port id="1">
					<dim>192</dim>
					<dim>1</dim>
					<dim>1</dim>
					<dim>1</dim>
				</port>
			</input>
			<output>
				<port id="2" precision="FP32">
					<dim>192</dim>
					<dim>96</dim>
					<dim>3</dim>
					<dim>3</dim>
				</port>
			</output>
		</layer>
		<layer id="246" name="Conv_30/WithoutBiases/fq_weights_1/scale1171220479" type="Const" version="opset1">
			<data element_type="f32" offset="284356" shape="192,1,1,1" size="768"/>
			<output>
				<port id="0" precision="FP32">
					<dim>192</dim>
					<dim>1</dim>
					<dim>1</dim>
					<dim>1</dim>
				</port>
			</output>
		</layer>
		<layer id="247" name="Conv_30/WithoutBiases/fq_weights_1/mulpiply_by_scale" type="Multiply" version="opset1">
			<data auto_broadcast="numpy"/>
			<input>
				<port id="0">
					<dim>192</dim>
					<dim>96</dim>
					<dim>3</dim>
					<dim>3</dim>
				</port>
				<port id="1">
					<dim>192</dim>
					<dim>1</dim>
					<dim>1</dim>
					<dim>1</dim>
				</port>
			</input>
			<output>
				<port id="2" precision="FP32">
					<dim>192</dim>
					<dim>96</dim>
					<dim>3</dim>
					<dim>3</dim>
				</port>
			</output>
		</layer>
		<layer id="248" name="Conv_30/WithoutBiases" type="Convolution" version="opset1">
			<data auto_pad="explicit" dilations="1,1" pads_begin="1,1" pads_end="1,1" strides="2,2"/>
			<rt_info>
				<attribute name="fused_names" value="Conv_30/WithoutBiases" version="0"/>
			</rt_info>
			<input>
				<port id="0">
					<dim>1</dim>
					<dim>96</dim>
					<dim>160</dim>
					<dim>160</dim>
				</port>
				<port id="1">
					<dim>192</dim>
					<dim>96</dim>
					<dim>3</dim>
					<dim>3</dim>
				</port>
			</input>
			<output>
				<port id="2" precision="FP32">
					<dim>1</dim>
					<dim>192</dim>
					<dim>80</dim>
					<dim>80</dim>
				</port>
			</output>
		</layer>
		<layer id="249" name="Reshape_65264518886" type="Const" version="opset1">
			<data element_type="f32" offset="285124" shape="1,192,1,1" size="768"/>
			<output>
				<port id="0" precision="FP32">
					<dim>1</dim>
					<dim>192</dim>
					<dim>1</dim>
					<dim>1</dim>
				</port>
			</output>
		</layer>
		<layer id="250" name="Conv_30" type="Add" version="opset1">
			<data auto_broadcast="numpy"/>
			<rt_info>
				<attribute name="fused_names" value="Concat_651, Conv_30, Reshape_652" version="0"/>
			</rt_info>
			<input>
				<port id="0">
					<dim>1</dim>
					<dim>192</dim>
					<dim>80</dim>
					<dim>80</dim>
				</port>
				<port id="1">
					<dim>1</dim>
					<dim>192</dim>
					<dim>1</dim>
					<dim>1</dim>
				</port>
			</input>
			<output>
				<port id="2" names="196" precision="FP32">
					<dim>1</dim>
					<dim>192</dim>
					<dim>80</dim>
					<dim>80</dim>
				</port>
			</output>
		</layer>
		<layer id="251" name="Mul_32" type="Swish" version="opset4">
			<rt_info>
				<attribute name="fused_names" value="Mul_32, Sigmoid_31" version="0"/>
			</rt_info>
			<input>
				<port id="0">
					<dim>1</dim>
					<dim>192</dim>
					<dim>80</dim>
					<dim>80</dim>
				</port>
			</input>
			<output>
				<port id="1" names="198" precision="FP32">
					<dim>1</dim>
					<dim>192</dim>
					<dim>80</dim>
					<dim>80</dim>
				</port>
			</output>
		</layer>
		<layer id="252" name="Conv_33/WithoutBiases/fq_input_0" type="FakeQuantize" version="opset1">
			<data auto_broadcast="numpy" levels="256"/>
			<input>
				<port id="0">
					<dim>1</dim>
					<dim>192</dim>
					<dim>80</dim>
					<dim>80</dim>
				</port>
				<port id="1">
					<dim>1</dim>
					<dim>1</dim>
					<dim>1</dim>
					<dim>1</dim>
				</port>
				<port id="2">
					<dim>1</dim>
					<dim>1</dim>
					<dim>1</dim>
					<dim>1</dim>
				</port>
				<port id="3">
					<dim>1</dim>
					<dim>1</dim>
					<dim>1</dim>
					<dim>1</dim>
				</port>
				<port id="4">
					<dim>1</dim>
					<dim>1</dim>
					<dim>1</dim>
					<dim>1</dim>
				</port>
			</input>
			<output>
				<port id="5" precision="FP32">
					<dim>1</dim>
					<dim>192</dim>
					<dim>80</dim>
					<dim>80</dim>
				</port>
			</output>
		</layer>
		<layer id="253" name="model.4.cv1.conv.weight64810413/quantized1425419699" type="Const" version="opset1">
			<data element_type="i8" offset="285892" shape="96,192,1,1" size="18432"/>
			<output>
				<port id="0" precision="I8">
					<dim>96</dim>
					<dim>192</dim>
					<dim>1</dim>
					<dim>1</dim>
				</port>
			</output>
		</layer>
		<layer id="254" name="model.4.cv1.conv.weight64810413/quantized/to_f32" type="Convert" version="opset1">
			<data destination_type="f32"/>
			<input>
				<port id="0">
					<dim>96</dim>
					<dim>192</dim>
					<dim>1</dim>
					<dim>1</dim>
				</port>
			</input>
			<output>
				<port id="1" precision="FP32">
					<dim>96</dim>
					<dim>192</dim>
					<dim>1</dim>
					<dim>1</dim>
				</port>
			</output>
		</layer>
		<layer id="255" name="Conv_33/WithoutBiases/fq_weights_1/zero_point1427318025" type="Const" version="opset1">
			<data element_type="f32" offset="304324" shape="96,1,1,1" size="384"/>
			<output>
				<port id="0" precision="FP32">
					<dim>96</dim>
					<dim>1</dim>
					<dim>1</dim>
					<dim>1</dim>
				</port>
			</output>
		</layer>
		<layer id="256" name="Conv_33/WithoutBiases/fq_weights_1/minus_zp" type="Subtract" version="opset1">
			<data auto_broadcast="numpy"/>
			<input>
				<port id="0">
					<dim>96</dim>
					<dim>192</dim>
					<dim>1</dim>
					<dim>1</dim>
				</port>
				<port id="1">
					<dim>96</dim>
					<dim>1</dim>
					<dim>1</dim>
					<dim>1</dim>
				</port>
			</input>
			<output>
				<port id="2" precision="FP32">
					<dim>96</dim>
					<dim>192</dim>
					<dim>1</dim>
					<dim>1</dim>
				</port>
			</output>
		</layer>
		<layer id="257" name="Conv_33/WithoutBiases/fq_weights_1/scale1426218058" type="Const" version="opset1">
			<data element_type="f32" offset="304708" shape="96,1,1,1" size="384"/>
			<output>
				<port id="0" precision="FP32">
					<dim>96</dim>
					<dim>1</dim>
					<dim>1</dim>
					<dim>1</dim>
				</port>
			</output>
		</layer>
		<layer id="258" name="Conv_33/WithoutBiases/fq_weights_1/mulpiply_by_scale" type="Multiply" version="opset1">
			<data auto_broadcast="numpy"/>
			<input>
				<port id="0">
					<dim>96</dim>
					<dim>192</dim>
					<dim>1</dim>
					<dim>1</dim>
				</port>
				<port id="1">
					<dim>96</dim>
					<dim>1</dim>
					<dim>1</dim>
					<dim>1</dim>
				</port>
			</input>
			<output>
				<port id="2" precision="FP32">
					<dim>96</dim>
					<dim>192</dim>
					<dim>1</dim>
					<dim>1</dim>
				</port>
			</output>
		</layer>
		<layer id="259" name="Conv_33/WithoutBiases" type="Convolution" version="opset1">
			<data auto_pad="explicit" dilations="1,1" pads_begin="0,0" pads_end="0,0" strides="1,1"/>
			<rt_info>
				<attribute name="fused_names" value="Conv_33/WithoutBiases" version="0"/>
			</rt_info>
			<input>
				<port id="0">
					<dim>1</dim>
					<dim>192</dim>
					<dim>80</dim>
					<dim>80</dim>
				</port>
				<port id="1">
					<dim>96</dim>
					<dim>192</dim>
					<dim>1</dim>
					<dim>1</dim>
				</port>
			</input>
			<output>
				<port id="2" precision="FP32">
					<dim>1</dim>
					<dim>96</dim>
					<dim>80</dim>
					<dim>80</dim>
				</port>
			</output>
		</layer>
		<layer id="260" name="Reshape_70265020434" type="Const" version="opset1">
			<data element_type="f32" offset="305092" shape="1,96,1,1" size="384"/>
			<output>
				<port id="0" precision="FP32">
					<dim>1</dim>
					<dim>96</dim>
					<dim>1</dim>
					<dim>1</dim>
				</port>
			</output>
		</layer>
		<layer id="261" name="Conv_33" type="Add" version="opset1">
			<data auto_broadcast="numpy"/>
			<rt_info>
				<attribute name="fused_names" value="Concat_701, Conv_33, Reshape_702" version="0"/>
			</rt_info>
			<input>
				<port id="0">
					<dim>1</dim>
					<dim>96</dim>
					<dim>80</dim>
					<dim>80</dim>
				</port>
				<port id="1">
					<dim>1</dim>
					<dim>96</dim>
					<dim>1</dim>
					<dim>1</dim>
				</port>
			</input>
			<output>
				<port id="2" names="199" precision="FP32">
					<dim>1</dim>
					<dim>96</dim>
					<dim>80</dim>
					<dim>80</dim>
				</port>
			</output>
		</layer>
		<layer id="262" name="Mul_35" type="Swish" version="opset4">
			<rt_info>
				<attribute name="fused_names" value="Mul_35, Sigmoid_34" version="0"/>
			</rt_info>
			<input>
				<port id="0">
					<dim>1</dim>
					<dim>96</dim>
					<dim>80</dim>
					<dim>80</dim>
				</port>
			</input>
			<output>
				<port id="1" names="201" precision="FP32">
					<dim>1</dim>
					<dim>96</dim>
					<dim>80</dim>
					<dim>80</dim>
				</port>
			</output>
		</layer>
		<layer id="263" name="Add_42/fq_input_0" type="FakeQuantize" version="opset1">
			<data auto_broadcast="numpy" levels="256"/>
			<input>
				<port id="0">
					<dim>1</dim>
					<dim>96</dim>
					<dim>80</dim>
					<dim>80</dim>
				</port>
				<port id="1">
					<dim>1</dim>
					<dim>1</dim>
					<dim>1</dim>
					<dim>1</dim>
				</port>
				<port id="2">
					<dim>1</dim>
					<dim>1</dim>
					<dim>1</dim>
					<dim>1</dim>
				</port>
				<port id="3">
					<dim>1</dim>
					<dim>1</dim>
					<dim>1</dim>
					<dim>1</dim>
				</port>
				<port id="4">
					<dim>1</dim>
					<dim>1</dim>
					<dim>1</dim>
					<dim>1</dim>
				</port>
			</input>
			<output>
				<port id="5" precision="FP32">
					<dim>1</dim>
					<dim>96</dim>
					<dim>80</dim>
					<dim>80</dim>
				</port>
			</output>
		</layer>
		<layer id="264" name="3186319018385" type="Const" version="opset1">
			<data element_type="f32" offset="0" shape="1,1,1,1" size="4"/>
			<output>
				<port id="0" precision="FP32">
					<dim>1</dim>
					<dim>1</dim>
					<dim>1</dim>
					<dim>1</dim>
				</port>
			</output>
		</layer>
		<layer id="265" name="3187319118541" type="Const" version="opset1">
			<data element_type="f32" offset="305476" shape="1,1,1,1" size="4"/>
			<output>
				<port id="0" precision="FP32">
					<dim>1</dim>
					<dim>1</dim>
					<dim>1</dim>
					<dim>1</dim>
				</port>
			</output>
		</layer>
		<layer id="266" name="3188319218907" type="Const" version="opset1">
			<data element_type="f32" offset="0" shape="1,1,1,1" size="4"/>
			<output>
				<port id="0" precision="FP32">
					<dim>1</dim>
					<dim>1</dim>
					<dim>1</dim>
					<dim>1</dim>
				</port>
			</output>
		</layer>
		<layer id="267" name="3189319318076" type="Const" version="opset1">
			<data element_type="f32" offset="305476" shape="1,1,1,1" size="4"/>
			<output>
				<port id="0" precision="FP32">
					<dim>1</dim>
					<dim>1</dim>
					<dim>1</dim>
					<dim>1</dim>
				</port>
			</output>
		</layer>
		<layer id="268" name="2206221019138" type="Const" version="opset1">
			<data element_type="f32" offset="0" shape="1,1,1,1" size="4"/>
			<output>
				<port id="0" precision="FP32">
					<dim>1</dim>
					<dim>1</dim>
					<dim>1</dim>
					<dim>1</dim>
				</port>
			</output>
		</layer>
		<layer id="269" name="2207221119387" type="Const" version="opset1">
			<data element_type="f32" offset="8" shape="1,1,1,1" size="4"/>
			<output>
				<port id="0" precision="FP32">
					<dim>1</dim>
					<dim>1</dim>
					<dim>1</dim>
					<dim>1</dim>
				</port>
			</output>
		</layer>
		<layer id="270" name="2208221220485" type="Const" version="opset1">
			<data element_type="f32" offset="0" shape="1,1,1,1" size="4"/>
			<output>
				<port id="0" precision="FP32">
					<dim>1</dim>
					<dim>1</dim>
					<dim>1</dim>
					<dim>1</dim>
				</port>
			</output>
		</layer>
		<layer id="271" name="2209221318511" type="Const" version="opset1">
			<data element_type="f32" offset="8" shape="1,1,1,1" size="4"/>
			<output>
				<port id="0" precision="FP32">
					<dim>1</dim>
					<dim>1</dim>
					<dim>1</dim>
					<dim>1</dim>
				</port>
			</output>
		</layer>
		<layer id="272" name="model.4.m.0.cv1.conv.weight65310415/quantized1221420239" type="Const" version="opset1">
			<data element_type="i8" offset="305480" shape="96,96,1,1" size="9216"/>
			<output>
				<port id="0" precision="I8">
					<dim>96</dim>
					<dim>96</dim>
					<dim>1</dim>
					<dim>1</dim>
				</port>
			</output>
		</layer>
		<layer id="273" name="model.4.m.0.cv1.conv.weight65310415/quantized/to_f32" type="Convert" version="opset1">
			<data destination_type="f32"/>
			<input>
				<port id="0">
					<dim>96</dim>
					<dim>96</dim>
					<dim>1</dim>
					<dim>1</dim>
				</port>
			</input>
			<output>
				<port id="1" precision="FP32">
					<dim>96</dim>
					<dim>96</dim>
					<dim>1</dim>
					<dim>1</dim>
				</port>
			</output>
		</layer>
		<layer id="274" name="Conv_36/WithoutBiases/fq_weights_1/zero_point1223319087" type="Const" version="opset1">
			<data element_type="f32" offset="314696" shape="96,1,1,1" size="384"/>
			<output>
				<port id="0" precision="FP32">
					<dim>96</dim>
					<dim>1</dim>
					<dim>1</dim>
					<dim>1</dim>
				</port>
			</output>
		</layer>
		<layer id="275" name="Conv_36/WithoutBiases/fq_weights_1/minus_zp" type="Subtract" version="opset1">
			<data auto_broadcast="numpy"/>
			<input>
				<port id="0">
					<dim>96</dim>
					<dim>96</dim>
					<dim>1</dim>
					<dim>1</dim>
				</port>
				<port id="1">
					<dim>96</dim>
					<dim>1</dim>
					<dim>1</dim>
					<dim>1</dim>
				</port>
			</input>
			<output>
				<port id="2" precision="FP32">
					<dim>96</dim>
					<dim>96</dim>
					<dim>1</dim>
					<dim>1</dim>
				</port>
			</output>
		</layer>
		<layer id="276" name="Conv_36/WithoutBiases/fq_weights_1/scale1222218067" type="Const" version="opset1">
			<data element_type="f32" offset="315080" shape="96,1,1,1" size="384"/>
			<output>
				<port id="0" precision="FP32">
					<dim>96</dim>
					<dim>1</dim>
					<dim>1</dim>
					<dim>1</dim>
				</port>
			</output>
		</layer>
		<layer id="277" name="Conv_36/WithoutBiases/fq_weights_1/mulpiply_by_scale" type="Multiply" version="opset1">
			<data auto_broadcast="numpy"/>
			<input>
				<port id="0">
					<dim>96</dim>
					<dim>96</dim>
					<dim>1</dim>
					<dim>1</dim>
				</port>
				<port id="1">
					<dim>96</dim>
					<dim>1</dim>
					<dim>1</dim>
					<dim>1</dim>
				</port>
			</input>
			<output>
				<port id="2" precision="FP32">
					<dim>96</dim>
					<dim>96</dim>
					<dim>1</dim>
					<dim>1</dim>
				</port>
			</output>
		</layer>
		<layer id="278" name="Conv_36/WithoutBiases" type="Convolution" version="opset1">
			<data auto_pad="explicit" dilations="1,1" pads_begin="0,0" pads_end="0,0" strides="1,1"/>
			<rt_info>
				<attribute name="fused_names" value="Conv_36/WithoutBiases" version="0"/>
			</rt_info>
			<input>
				<port id="0">
					<dim>1</dim>
					<dim>96</dim>
					<dim>80</dim>
					<dim>80</dim>
				</port>
				<port id="1">
					<dim>96</dim>
					<dim>96</dim>
					<dim>1</dim>
					<dim>1</dim>
				</port>
			</input>
			<output>
				<port id="2" precision="FP32">
					<dim>1</dim>
					<dim>96</dim>
					<dim>80</dim>
					<dim>80</dim>
				</port>
			</output>
		</layer>
		<layer id="279" name="Reshape_75265519351" type="Const" version="opset1">
			<data element_type="f32" offset="315464" shape="1,96,1,1" size="384"/>
			<output>
				<port id="0" precision="FP32">
					<dim>1</dim>
					<dim>96</dim>
					<dim>1</dim>
					<dim>1</dim>
				</port>
			</output>
		</layer>
		<layer id="280" name="Conv_36" type="Add" version="opset1">
			<data auto_broadcast="numpy"/>
			<rt_info>
				<attribute name="fused_names" value="Concat_751, Conv_36, Reshape_752" version="0"/>
			</rt_info>
			<input>
				<port id="0">
					<dim>1</dim>
					<dim>96</dim>
					<dim>80</dim>
					<dim>80</dim>
				</port>
				<port id="1">
					<dim>1</dim>
					<dim>96</dim>
					<dim>1</dim>
					<dim>1</dim>
				</port>
			</input>
			<output>
				<port id="2" names="202" precision="FP32">
					<dim>1</dim>
					<dim>96</dim>
					<dim>80</dim>
					<dim>80</dim>
				</port>
			</output>
		</layer>
		<layer id="281" name="Mul_38" type="Swish" version="opset4">
			<rt_info>
				<attribute name="fused_names" value="Mul_38, Sigmoid_37" version="0"/>
			</rt_info>
			<input>
				<port id="0">
					<dim>1</dim>
					<dim>96</dim>
					<dim>80</dim>
					<dim>80</dim>
				</port>
			</input>
			<output>
				<port id="1" names="204" precision="FP32">
					<dim>1</dim>
					<dim>96</dim>
					<dim>80</dim>
					<dim>80</dim>
				</port>
			</output>
		</layer>
		<layer id="282" name="Conv_39/WithoutBiases/fq_input_0" type="FakeQuantize" version="opset1">
			<data auto_broadcast="numpy" levels="256"/>
			<input>
				<port id="0">
					<dim>1</dim>
					<dim>96</dim>
					<dim>80</dim>
					<dim>80</dim>
				</port>
				<port id="1">
					<dim>1</dim>
					<dim>1</dim>
					<dim>1</dim>
					<dim>1</dim>
				</port>
				<port id="2">
					<dim>1</dim>
					<dim>1</dim>
					<dim>1</dim>
					<dim>1</dim>
				</port>
				<port id="3">
					<dim>1</dim>
					<dim>1</dim>
					<dim>1</dim>
					<dim>1</dim>
				</port>
				<port id="4">
					<dim>1</dim>
					<dim>1</dim>
					<dim>1</dim>
					<dim>1</dim>
				</port>
			</input>
			<output>
				<port id="5" precision="FP32">
					<dim>1</dim>
					<dim>96</dim>
					<dim>80</dim>
					<dim>80</dim>
				</port>
			</output>
		</layer>
		<layer id="283" name="model.4.m.0.cv2.conv.weight65810417/quantized1335419228" type="Const" version="opset1">
			<data element_type="i8" offset="315848" shape="96,96,3,3" size="82944"/>
			<output>
				<port id="0" precision="I8">
					<dim>96</dim>
					<dim>96</dim>
					<dim>3</dim>
					<dim>3</dim>
				</port>
			</output>
		</layer>
		<layer id="284" name="model.4.m.0.cv2.conv.weight65810417/quantized/to_f32" type="Convert" version="opset1">
			<data destination_type="f32"/>
			<input>
				<port id="0">
					<dim>96</dim>
					<dim>96</dim>
					<dim>3</dim>
					<dim>3</dim>
				</port>
			</input>
			<output>
				<port id="1" precision="FP32">
					<dim>96</dim>
					<dim>96</dim>
					<dim>3</dim>
					<dim>3</dim>
				</port>
			</output>
		</layer>
		<layer id="285" name="Conv_39/WithoutBiases/fq_weights_1/zero_point1337319288" type="Const" version="opset1">
			<data element_type="f32" offset="398792" shape="96,1,1,1" size="384"/>
			<output>
				<port id="0" precision="FP32">
					<dim>96</dim>
					<dim>1</dim>
					<dim>1</dim>
					<dim>1</dim>
				</port>
			</output>
		</layer>
		<layer id="286" name="Conv_39/WithoutBiases/fq_weights_1/minus_zp" type="Subtract" version="opset1">
			<data auto_broadcast="numpy"/>
			<input>
				<port id="0">
					<dim>96</dim>
					<dim>96</dim>
					<dim>3</dim>
					<dim>3</dim>
				</port>
				<port id="1">
					<dim>96</dim>
					<dim>1</dim>
					<dim>1</dim>
					<dim>1</dim>
				</port>
			</input>
			<output>
				<port id="2" precision="FP32">
					<dim>96</dim>
					<dim>96</dim>
					<dim>3</dim>
					<dim>3</dim>
				</port>
			</output>
		</layer>
		<layer id="287" name="Conv_39/WithoutBiases/fq_weights_1/scale1336219105" type="Const" version="opset1">
			<data element_type="f32" offset="399176" shape="96,1,1,1" size="384"/>
			<output>
				<port id="0" precision="FP32">
					<dim>96</dim>
					<dim>1</dim>
					<dim>1</dim>
					<dim>1</dim>
				</port>
			</output>
		</layer>
		<layer id="288" name="Conv_39/WithoutBiases/fq_weights_1/mulpiply_by_scale" type="Multiply" version="opset1">
			<data auto_broadcast="numpy"/>
			<input>
				<port id="0">
					<dim>96</dim>
					<dim>96</dim>
					<dim>3</dim>
					<dim>3</dim>
				</port>
				<port id="1">
					<dim>96</dim>
					<dim>1</dim>
					<dim>1</dim>
					<dim>1</dim>
				</port>
			</input>
			<output>
				<port id="2" precision="FP32">
					<dim>96</dim>
					<dim>96</dim>
					<dim>3</dim>
					<dim>3</dim>
				</port>
			</output>
		</layer>
		<layer id="289" name="Conv_39/WithoutBiases" type="Convolution" version="opset1">
			<data auto_pad="explicit" dilations="1,1" pads_begin="1,1" pads_end="1,1" strides="1,1"/>
			<rt_info>
				<attribute name="fused_names" value="Conv_39/WithoutBiases" version="0"/>
			</rt_info>
			<input>
				<port id="0">
					<dim>1</dim>
					<dim>96</dim>
					<dim>80</dim>
					<dim>80</dim>
				</port>
				<port id="1">
					<dim>96</dim>
					<dim>96</dim>
					<dim>3</dim>
					<dim>3</dim>
				</port>
			</input>
			<output>
				<port id="2" precision="FP32">
					<dim>1</dim>
					<dim>96</dim>
					<dim>80</dim>
					<dim>80</dim>
				</port>
			</output>
		</layer>
		<layer id="290" name="Reshape_80266019810" type="Const" version="opset1">
			<data element_type="f32" offset="399560" shape="1,96,1,1" size="384"/>
			<output>
				<port id="0" precision="FP32">
					<dim>1</dim>
					<dim>96</dim>
					<dim>1</dim>
					<dim>1</dim>
				</port>
			</output>
		</layer>
		<layer id="291" name="Conv_39" type="Add" version="opset1">
			<data auto_broadcast="numpy"/>
			<rt_info>
				<attribute name="fused_names" value="Concat_801, Conv_39, Reshape_802" version="0"/>
			</rt_info>
			<input>
				<port id="0">
					<dim>1</dim>
					<dim>96</dim>
					<dim>80</dim>
					<dim>80</dim>
				</port>
				<port id="1">
					<dim>1</dim>
					<dim>96</dim>
					<dim>1</dim>
					<dim>1</dim>
				</port>
			</input>
			<output>
				<port id="2" names="205" precision="FP32">
					<dim>1</dim>
					<dim>96</dim>
					<dim>80</dim>
					<dim>80</dim>
				</port>
			</output>
		</layer>
		<layer id="292" name="Mul_41" type="Swish" version="opset4">
			<rt_info>
				<attribute name="fused_names" value="Mul_41, Sigmoid_40" version="0"/>
			</rt_info>
			<input>
				<port id="0">
					<dim>1</dim>
					<dim>96</dim>
					<dim>80</dim>
					<dim>80</dim>
				</port>
			</input>
			<output>
				<port id="1" names="207" precision="FP32">
					<dim>1</dim>
					<dim>96</dim>
					<dim>80</dim>
					<dim>80</dim>
				</port>
			</output>
		</layer>
		<layer id="293" name="Add_42/fq_input_1" type="FakeQuantize" version="opset1">
			<data auto_broadcast="numpy" levels="256"/>
			<input>
				<port id="0">
					<dim>1</dim>
					<dim>96</dim>
					<dim>80</dim>
					<dim>80</dim>
				</port>
				<port id="1">
					<dim>1</dim>
					<dim>1</dim>
					<dim>1</dim>
					<dim>1</dim>
				</port>
				<port id="2">
					<dim>1</dim>
					<dim>1</dim>
					<dim>1</dim>
					<dim>1</dim>
				</port>
				<port id="3">
					<dim>1</dim>
					<dim>1</dim>
					<dim>1</dim>
					<dim>1</dim>
				</port>
				<port id="4">
					<dim>1</dim>
					<dim>1</dim>
					<dim>1</dim>
					<dim>1</dim>
				</port>
			</input>
			<output>
				<port id="5" precision="FP32">
					<dim>1</dim>
					<dim>96</dim>
					<dim>80</dim>
					<dim>80</dim>
				</port>
			</output>
		</layer>
		<layer id="294" name="Add_42" type="Add" version="opset1">
			<data auto_broadcast="numpy"/>
			<rt_info>
				<attribute name="fused_names" value="Add_42" version="0"/>
			</rt_info>
			<input>
				<port id="0">
					<dim>1</dim>
					<dim>96</dim>
					<dim>80</dim>
					<dim>80</dim>
				</port>
				<port id="1">
					<dim>1</dim>
					<dim>96</dim>
					<dim>80</dim>
					<dim>80</dim>
				</port>
			</input>
			<output>
				<port id="2" names="208" precision="FP32">
					<dim>1</dim>
					<dim>96</dim>
					<dim>80</dim>
					<dim>80</dim>
				</port>
			</output>
		</layer>
		<layer id="295" name="Add_49/fq_input_0" type="FakeQuantize" version="opset1">
			<data auto_broadcast="numpy" levels="256"/>
			<input>
				<port id="0">
					<dim>1</dim>
					<dim>96</dim>
					<dim>80</dim>
					<dim>80</dim>
				</port>
				<port id="1">
					<dim>1</dim>
					<dim>1</dim>
					<dim>1</dim>
					<dim>1</dim>
				</port>
				<port id="2">
					<dim>1</dim>
					<dim>1</dim>
					<dim>1</dim>
					<dim>1</dim>
				</port>
				<port id="3">
					<dim>1</dim>
					<dim>1</dim>
					<dim>1</dim>
					<dim>1</dim>
				</port>
				<port id="4">
					<dim>1</dim>
					<dim>1</dim>
					<dim>1</dim>
					<dim>1</dim>
				</port>
			</input>
			<output>
				<port id="5" precision="FP32">
					<dim>1</dim>
					<dim>96</dim>
					<dim>80</dim>
					<dim>80</dim>
				</port>
			</output>
		</layer>
		<layer id="296" name="2656266018154" type="Const" version="opset1">
			<data element_type="f32" offset="0" shape="1,1,1,1" size="4"/>
			<output>
				<port id="0" precision="FP32">
					<dim>1</dim>
					<dim>1</dim>
					<dim>1</dim>
					<dim>1</dim>
				</port>
			</output>
		</layer>
		<layer id="297" name="2657266120134" type="Const" version="opset1">
			<data element_type="f32" offset="32" shape="1,1,1,1" size="4"/>
			<output>
				<port id="0" precision="FP32">
					<dim>1</dim>
					<dim>1</dim>
					<dim>1</dim>
					<dim>1</dim>
				</port>
			</output>
		</layer>
		<layer id="298" name="2658266217881" type="Const" version="opset1">
			<data element_type="f32" offset="0" shape="1,1,1,1" size="4"/>
			<output>
				<port id="0" precision="FP32">
					<dim>1</dim>
					<dim>1</dim>
					<dim>1</dim>
					<dim>1</dim>
				</port>
			</output>
		</layer>
		<layer id="299" name="2659266318142" type="Const" version="opset1">
			<data element_type="f32" offset="32" shape="1,1,1,1" size="4"/>
			<output>
				<port id="0" precision="FP32">
					<dim>1</dim>
					<dim>1</dim>
					<dim>1</dim>
					<dim>1</dim>
				</port>
			</output>
		</layer>
		<layer id="300" name="3056306019450" type="Const" version="opset1">
			<data element_type="f32" offset="0" shape="1,1,1,1" size="4"/>
			<output>
				<port id="0" precision="FP32">
					<dim>1</dim>
					<dim>1</dim>
					<dim>1</dim>
					<dim>1</dim>
				</port>
			</output>
		</layer>
		<layer id="301" name="3057306120380" type="Const" version="opset1">
			<data element_type="f32" offset="8" shape="1,1,1,1" size="4"/>
			<output>
				<port id="0" precision="FP32">
					<dim>1</dim>
					<dim>1</dim>
					<dim>1</dim>
					<dim>1</dim>
				</port>
			</output>
		</layer>
		<layer id="302" name="3058306219618" type="Const" version="opset1">
			<data element_type="f32" offset="0" shape="1,1,1,1" size="4"/>
			<output>
				<port id="0" precision="FP32">
					<dim>1</dim>
					<dim>1</dim>
					<dim>1</dim>
					<dim>1</dim>
				</port>
			</output>
		</layer>
		<layer id="303" name="3059306318817" type="Const" version="opset1">
			<data element_type="f32" offset="8" shape="1,1,1,1" size="4"/>
			<output>
				<port id="0" precision="FP32">
					<dim>1</dim>
					<dim>1</dim>
					<dim>1</dim>
					<dim>1</dim>
				</port>
			</output>
		</layer>
		<layer id="304" name="model.4.m.1.cv1.conv.weight66410419/quantized1317419186" type="Const" version="opset1">
			<data element_type="i8" offset="399944" shape="96,96,1,1" size="9216"/>
			<output>
				<port id="0" precision="I8">
					<dim>96</dim>
					<dim>96</dim>
					<dim>1</dim>
					<dim>1</dim>
				</port>
			</output>
		</layer>
		<layer id="305" name="model.4.m.1.cv1.conv.weight66410419/quantized/to_f32" type="Convert" version="opset1">
			<data destination_type="f32"/>
			<input>
				<port id="0">
					<dim>96</dim>
					<dim>96</dim>
					<dim>1</dim>
					<dim>1</dim>
				</port>
			</input>
			<output>
				<port id="1" precision="FP32">
					<dim>96</dim>
					<dim>96</dim>
					<dim>1</dim>
					<dim>1</dim>
				</port>
			</output>
		</layer>
		<layer id="306" name="Conv_43/WithoutBiases/fq_weights_1/zero_point1319318661" type="Const" version="opset1">
			<data element_type="f32" offset="409160" shape="96,1,1,1" size="384"/>
			<output>
				<port id="0" precision="FP32">
					<dim>96</dim>
					<dim>1</dim>
					<dim>1</dim>
					<dim>1</dim>
				</port>
			</output>
		</layer>
		<layer id="307" name="Conv_43/WithoutBiases/fq_weights_1/minus_zp" type="Subtract" version="opset1">
			<data auto_broadcast="numpy"/>
			<input>
				<port id="0">
					<dim>96</dim>
					<dim>96</dim>
					<dim>1</dim>
					<dim>1</dim>
				</port>
				<port id="1">
					<dim>96</dim>
					<dim>1</dim>
					<dim>1</dim>
					<dim>1</dim>
				</port>
			</input>
			<output>
				<port id="2" precision="FP32">
					<dim>96</dim>
					<dim>96</dim>
					<dim>1</dim>
					<dim>1</dim>
				</port>
			</output>
		</layer>
		<layer id="308" name="Conv_43/WithoutBiases/fq_weights_1/scale1318218550" type="Const" version="opset1">
			<data element_type="f32" offset="409544" shape="96,1,1,1" size="384"/>
			<output>
				<port id="0" precision="FP32">
					<dim>96</dim>
					<dim>1</dim>
					<dim>1</dim>
					<dim>1</dim>
				</port>
			</output>
		</layer>
		<layer id="309" name="Conv_43/WithoutBiases/fq_weights_1/mulpiply_by_scale" type="Multiply" version="opset1">
			<data auto_broadcast="numpy"/>
			<input>
				<port id="0">
					<dim>96</dim>
					<dim>96</dim>
					<dim>1</dim>
					<dim>1</dim>
				</port>
				<port id="1">
					<dim>96</dim>
					<dim>1</dim>
					<dim>1</dim>
					<dim>1</dim>
				</port>
			</input>
			<output>
				<port id="2" precision="FP32">
					<dim>96</dim>
					<dim>96</dim>
					<dim>1</dim>
					<dim>1</dim>
				</port>
			</output>
		</layer>
		<layer id="310" name="Conv_43/WithoutBiases" type="Convolution" version="opset1">
			<data auto_pad="explicit" dilations="1,1" pads_begin="0,0" pads_end="0,0" strides="1,1"/>
			<rt_info>
				<attribute name="fused_names" value="Conv_43/WithoutBiases" version="0"/>
			</rt_info>
			<input>
				<port id="0">
					<dim>1</dim>
					<dim>96</dim>
					<dim>80</dim>
					<dim>80</dim>
				</port>
				<port id="1">
					<dim>96</dim>
					<dim>96</dim>
					<dim>1</dim>
					<dim>1</dim>
				</port>
			</input>
			<output>
				<port id="2" precision="FP32">
					<dim>1</dim>
					<dim>96</dim>
					<dim>80</dim>
					<dim>80</dim>
				</port>
			</output>
		</layer>
		<layer id="311" name="Reshape_85366618277" type="Const" version="opset1">
			<data element_type="f32" offset="409928" shape="1,96,1,1" size="384"/>
			<output>
				<port id="0" precision="FP32">
					<dim>1</dim>
					<dim>96</dim>
					<dim>1</dim>
					<dim>1</dim>
				</port>
			</output>
		</layer>
		<layer id="312" name="Conv_43" type="Add" version="opset1">
			<data auto_broadcast="numpy"/>
			<rt_info>
				<attribute name="fused_names" value="Concat_852, Conv_43, Reshape_853" version="0"/>
			</rt_info>
			<input>
				<port id="0">
					<dim>1</dim>
					<dim>96</dim>
					<dim>80</dim>
					<dim>80</dim>
				</port>
				<port id="1">
					<dim>1</dim>
					<dim>96</dim>
					<dim>1</dim>
					<dim>1</dim>
				</port>
			</input>
			<output>
				<port id="2" names="209" precision="FP32">
					<dim>1</dim>
					<dim>96</dim>
					<dim>80</dim>
					<dim>80</dim>
				</port>
			</output>
		</layer>
		<layer id="313" name="Mul_45" type="Swish" version="opset4">
			<rt_info>
				<attribute name="fused_names" value="Mul_45, Sigmoid_44" version="0"/>
			</rt_info>
			<input>
				<port id="0">
					<dim>1</dim>
					<dim>96</dim>
					<dim>80</dim>
					<dim>80</dim>
				</port>
			</input>
			<output>
				<port id="1" names="211" precision="FP32">
					<dim>1</dim>
					<dim>96</dim>
					<dim>80</dim>
					<dim>80</dim>
				</port>
			</output>
		</layer>
		<layer id="314" name="Conv_46/WithoutBiases/fq_input_0" type="FakeQuantize" version="opset1">
			<data auto_broadcast="numpy" levels="256"/>
			<input>
				<port id="0">
					<dim>1</dim>
					<dim>96</dim>
					<dim>80</dim>
					<dim>80</dim>
				</port>
				<port id="1">
					<dim>1</dim>
					<dim>1</dim>
					<dim>1</dim>
					<dim>1</dim>
				</port>
				<port id="2">
					<dim>1</dim>
					<dim>1</dim>
					<dim>1</dim>
					<dim>1</dim>
				</port>
				<port id="3">
					<dim>1</dim>
					<dim>1</dim>
					<dim>1</dim>
					<dim>1</dim>
				</port>
				<port id="4">
					<dim>1</dim>
					<dim>1</dim>
					<dim>1</dim>
					<dim>1</dim>
				</port>
			</input>
			<output>
				<port id="5" precision="FP32">
					<dim>1</dim>
					<dim>96</dim>
					<dim>80</dim>
					<dim>80</dim>
				</port>
			</output>
		</layer>
		<layer id="315" name="model.4.m.1.cv2.conv.weight66910421/quantized1419418088" type="Const" version="opset1">
			<data element_type="i8" offset="410312" shape="96,96,3,3" size="82944"/>
			<output>
				<port id="0" precision="I8">
					<dim>96</dim>
					<dim>96</dim>
					<dim>3</dim>
					<dim>3</dim>
				</port>
			</output>
		</layer>
		<layer id="316" name="model.4.m.1.cv2.conv.weight66910421/quantized/to_f32" type="Convert" version="opset1">
			<data destination_type="f32"/>
			<input>
				<port id="0">
					<dim>96</dim>
					<dim>96</dim>
					<dim>3</dim>
					<dim>3</dim>
				</port>
			</input>
			<output>
				<port id="1" precision="FP32">
					<dim>96</dim>
					<dim>96</dim>
					<dim>3</dim>
					<dim>3</dim>
				</port>
			</output>
		</layer>
		<layer id="317" name="Conv_46/WithoutBiases/fq_weights_1/zero_point1421318691" type="Const" version="opset1">
			<data element_type="f32" offset="493256" shape="96,1,1,1" size="384"/>
			<output>
				<port id="0" precision="FP32">
					<dim>96</dim>
					<dim>1</dim>
					<dim>1</dim>
					<dim>1</dim>
				</port>
			</output>
		</layer>
		<layer id="318" name="Conv_46/WithoutBiases/fq_weights_1/minus_zp" type="Subtract" version="opset1">
			<data auto_broadcast="numpy"/>
			<input>
				<port id="0">
					<dim>96</dim>
					<dim>96</dim>
					<dim>3</dim>
					<dim>3</dim>
				</port>
				<port id="1">
					<dim>96</dim>
					<dim>1</dim>
					<dim>1</dim>
					<dim>1</dim>
				</port>
			</input>
			<output>
				<port id="2" precision="FP32">
					<dim>96</dim>
					<dim>96</dim>
					<dim>3</dim>
					<dim>3</dim>
				</port>
			</output>
		</layer>
		<layer id="319" name="Conv_46/WithoutBiases/fq_weights_1/scale1420218271" type="Const" version="opset1">
			<data element_type="f32" offset="493640" shape="96,1,1,1" size="384"/>
			<output>
				<port id="0" precision="FP32">
					<dim>96</dim>
					<dim>1</dim>
					<dim>1</dim>
					<dim>1</dim>
				</port>
			</output>
		</layer>
		<layer id="320" name="Conv_46/WithoutBiases/fq_weights_1/mulpiply_by_scale" type="Multiply" version="opset1">
			<data auto_broadcast="numpy"/>
			<input>
				<port id="0">
					<dim>96</dim>
					<dim>96</dim>
					<dim>3</dim>
					<dim>3</dim>
				</port>
				<port id="1">
					<dim>96</dim>
					<dim>1</dim>
					<dim>1</dim>
					<dim>1</dim>
				</port>
			</input>
			<output>
				<port id="2" precision="FP32">
					<dim>96</dim>
					<dim>96</dim>
					<dim>3</dim>
					<dim>3</dim>
				</port>
			</output>
		</layer>
		<layer id="321" name="Conv_46/WithoutBiases" type="Convolution" version="opset1">
			<data auto_pad="explicit" dilations="1,1" pads_begin="1,1" pads_end="1,1" strides="1,1"/>
			<rt_info>
				<attribute name="fused_names" value="Conv_46/WithoutBiases" version="0"/>
			</rt_info>
			<input>
				<port id="0">
					<dim>1</dim>
					<dim>96</dim>
					<dim>80</dim>
					<dim>80</dim>
				</port>
				<port id="1">
					<dim>96</dim>
					<dim>96</dim>
					<dim>3</dim>
					<dim>3</dim>
				</port>
			</input>
			<output>
				<port id="2" precision="FP32">
					<dim>1</dim>
					<dim>96</dim>
					<dim>80</dim>
					<dim>80</dim>
				</port>
			</output>
		</layer>
		<layer id="322" name="Reshape_90367119828" type="Const" version="opset1">
			<data element_type="f32" offset="494024" shape="1,96,1,1" size="384"/>
			<output>
				<port id="0" precision="FP32">
					<dim>1</dim>
					<dim>96</dim>
					<dim>1</dim>
					<dim>1</dim>
				</port>
			</output>
		</layer>
		<layer id="323" name="Conv_46" type="Add" version="opset1">
			<data auto_broadcast="numpy"/>
			<rt_info>
				<attribute name="fused_names" value="Concat_902, Conv_46, Reshape_903" version="0"/>
			</rt_info>
			<input>
				<port id="0">
					<dim>1</dim>
					<dim>96</dim>
					<dim>80</dim>
					<dim>80</dim>
				</port>
				<port id="1">
					<dim>1</dim>
					<dim>96</dim>
					<dim>1</dim>
					<dim>1</dim>
				</port>
			</input>
			<output>
				<port id="2" names="212" precision="FP32">
					<dim>1</dim>
					<dim>96</dim>
					<dim>80</dim>
					<dim>80</dim>
				</port>
			</output>
		</layer>
		<layer id="324" name="Mul_48" type="Swish" version="opset4">
			<rt_info>
				<attribute name="fused_names" value="Mul_48, Sigmoid_47" version="0"/>
			</rt_info>
			<input>
				<port id="0">
					<dim>1</dim>
					<dim>96</dim>
					<dim>80</dim>
					<dim>80</dim>
				</port>
			</input>
			<output>
				<port id="1" names="214" precision="FP32">
					<dim>1</dim>
					<dim>96</dim>
					<dim>80</dim>
					<dim>80</dim>
				</port>
			</output>
		</layer>
		<layer id="325" name="Add_49/fq_input_1" type="FakeQuantize" version="opset1">
			<data auto_broadcast="numpy" levels="256"/>
			<input>
				<port id="0">
					<dim>1</dim>
					<dim>96</dim>
					<dim>80</dim>
					<dim>80</dim>
				</port>
				<port id="1">
					<dim>1</dim>
					<dim>1</dim>
					<dim>1</dim>
					<dim>1</dim>
				</port>
				<port id="2">
					<dim>1</dim>
					<dim>1</dim>
					<dim>1</dim>
					<dim>1</dim>
				</port>
				<port id="3">
					<dim>1</dim>
					<dim>1</dim>
					<dim>1</dim>
					<dim>1</dim>
				</port>
				<port id="4">
					<dim>1</dim>
					<dim>1</dim>
					<dim>1</dim>
					<dim>1</dim>
				</port>
			</input>
			<output>
				<port id="5" precision="FP32">
					<dim>1</dim>
					<dim>96</dim>
					<dim>80</dim>
					<dim>80</dim>
				</port>
			</output>
		</layer>
		<layer id="326" name="Add_49" type="Add" version="opset1">
			<data auto_broadcast="numpy"/>
			<rt_info>
				<attribute name="fused_names" value="Add_49" version="0"/>
			</rt_info>
			<input>
				<port id="0">
					<dim>1</dim>
					<dim>96</dim>
					<dim>80</dim>
					<dim>80</dim>
				</port>
				<port id="1">
					<dim>1</dim>
					<dim>96</dim>
					<dim>80</dim>
					<dim>80</dim>
				</port>
			</input>
			<output>
				<port id="2" names="215" precision="FP32">
					<dim>1</dim>
					<dim>96</dim>
					<dim>80</dim>
					<dim>80</dim>
				</port>
			</output>
		</layer>
		<layer id="327" name="Add_56/fq_input_0" type="FakeQuantize" version="opset1">
			<data auto_broadcast="numpy" levels="256"/>
			<input>
				<port id="0">
					<dim>1</dim>
					<dim>96</dim>
					<dim>80</dim>
					<dim>80</dim>
				</port>
				<port id="1">
					<dim>1</dim>
					<dim>1</dim>
					<dim>1</dim>
					<dim>1</dim>
				</port>
				<port id="2">
					<dim>1</dim>
					<dim>1</dim>
					<dim>1</dim>
					<dim>1</dim>
				</port>
				<port id="3">
					<dim>1</dim>
					<dim>1</dim>
					<dim>1</dim>
					<dim>1</dim>
				</port>
				<port id="4">
					<dim>1</dim>
					<dim>1</dim>
					<dim>1</dim>
					<dim>1</dim>
				</port>
			</input>
			<output>
				<port id="5" precision="FP32">
					<dim>1</dim>
					<dim>96</dim>
					<dim>80</dim>
					<dim>80</dim>
				</port>
			</output>
		</layer>
		<layer id="328" name="3856386019597" type="Const" version="opset1">
			<data element_type="f32" offset="0" shape="1,1,1,1" size="4"/>
			<output>
				<port id="0" precision="FP32">
					<dim>1</dim>
					<dim>1</dim>
					<dim>1</dim>
					<dim>1</dim>
				</port>
			</output>
		</layer>
		<layer id="329" name="3857386118829" type="Const" version="opset1">
			<data element_type="f32" offset="4" shape="1,1,1,1" size="4"/>
			<output>
				<port id="0" precision="FP32">
					<dim>1</dim>
					<dim>1</dim>
					<dim>1</dim>
					<dim>1</dim>
				</port>
			</output>
		</layer>
		<layer id="330" name="3858386219756" type="Const" version="opset1">
			<data element_type="f32" offset="0" shape="1,1,1,1" size="4"/>
			<output>
				<port id="0" precision="FP32">
					<dim>1</dim>
					<dim>1</dim>
					<dim>1</dim>
					<dim>1</dim>
				</port>
			</output>
		</layer>
		<layer id="331" name="3859386319906" type="Const" version="opset1">
			<data element_type="f32" offset="4" shape="1,1,1,1" size="4"/>
			<output>
				<port id="0" precision="FP32">
					<dim>1</dim>
					<dim>1</dim>
					<dim>1</dim>
					<dim>1</dim>
				</port>
			</output>
		</layer>
		<layer id="332" name="2836284020476" type="Const" version="opset1">
			<data element_type="f32" offset="0" shape="1,1,1,1" size="4"/>
			<output>
				<port id="0" precision="FP32">
					<dim>1</dim>
					<dim>1</dim>
					<dim>1</dim>
					<dim>1</dim>
				</port>
			</output>
		</layer>
		<layer id="333" name="2837284119006" type="Const" version="opset1">
			<data element_type="f32" offset="32" shape="1,1,1,1" size="4"/>
			<output>
				<port id="0" precision="FP32">
					<dim>1</dim>
					<dim>1</dim>
					<dim>1</dim>
					<dim>1</dim>
				</port>
			</output>
		</layer>
		<layer id="334" name="2838284218973" type="Const" version="opset1">
			<data element_type="f32" offset="0" shape="1,1,1,1" size="4"/>
			<output>
				<port id="0" precision="FP32">
					<dim>1</dim>
					<dim>1</dim>
					<dim>1</dim>
					<dim>1</dim>
				</port>
			</output>
		</layer>
		<layer id="335" name="2839284319165" type="Const" version="opset1">
			<data element_type="f32" offset="32" shape="1,1,1,1" size="4"/>
			<output>
				<port id="0" precision="FP32">
					<dim>1</dim>
					<dim>1</dim>
					<dim>1</dim>
					<dim>1</dim>
				</port>
			</output>
		</layer>
		<layer id="336" name="model.4.m.2.cv1.conv.weight67510423/quantized1344418130" type="Const" version="opset1">
			<data element_type="i8" offset="494408" shape="96,96,1,1" size="9216"/>
			<output>
				<port id="0" precision="I8">
					<dim>96</dim>
					<dim>96</dim>
					<dim>1</dim>
					<dim>1</dim>
				</port>
			</output>
		</layer>
		<layer id="337" name="model.4.m.2.cv1.conv.weight67510423/quantized/to_f32" type="Convert" version="opset1">
			<data destination_type="f32"/>
			<input>
				<port id="0">
					<dim>96</dim>
					<dim>96</dim>
					<dim>1</dim>
					<dim>1</dim>
				</port>
			</input>
			<output>
				<port id="1" precision="FP32">
					<dim>96</dim>
					<dim>96</dim>
					<dim>1</dim>
					<dim>1</dim>
				</port>
			</output>
		</layer>
		<layer id="338" name="Conv_50/WithoutBiases/fq_weights_1/zero_point1346317893" type="Const" version="opset1">
			<data element_type="f32" offset="503624" shape="96,1,1,1" size="384"/>
			<output>
				<port id="0" precision="FP32">
					<dim>96</dim>
					<dim>1</dim>
					<dim>1</dim>
					<dim>1</dim>
				</port>
			</output>
		</layer>
		<layer id="339" name="Conv_50/WithoutBiases/fq_weights_1/minus_zp" type="Subtract" version="opset1">
			<data auto_broadcast="numpy"/>
			<input>
				<port id="0">
					<dim>96</dim>
					<dim>96</dim>
					<dim>1</dim>
					<dim>1</dim>
				</port>
				<port id="1">
					<dim>96</dim>
					<dim>1</dim>
					<dim>1</dim>
					<dim>1</dim>
				</port>
			</input>
			<output>
				<port id="2" precision="FP32">
					<dim>96</dim>
					<dim>96</dim>
					<dim>1</dim>
					<dim>1</dim>
				</port>
			</output>
		</layer>
		<layer id="340" name="Conv_50/WithoutBiases/fq_weights_1/scale1345218331" type="Const" version="opset1">
			<data element_type="f32" offset="504008" shape="96,1,1,1" size="384"/>
			<output>
				<port id="0" precision="FP32">
					<dim>96</dim>
					<dim>1</dim>
					<dim>1</dim>
					<dim>1</dim>
				</port>
			</output>
		</layer>
		<layer id="341" name="Conv_50/WithoutBiases/fq_weights_1/mulpiply_by_scale" type="Multiply" version="opset1">
			<data auto_broadcast="numpy"/>
			<input>
				<port id="0">
					<dim>96</dim>
					<dim>96</dim>
					<dim>1</dim>
					<dim>1</dim>
				</port>
				<port id="1">
					<dim>96</dim>
					<dim>1</dim>
					<dim>1</dim>
					<dim>1</dim>
				</port>
			</input>
			<output>
				<port id="2" precision="FP32">
					<dim>96</dim>
					<dim>96</dim>
					<dim>1</dim>
					<dim>1</dim>
				</port>
			</output>
		</layer>
		<layer id="342" name="Conv_50/WithoutBiases" type="Convolution" version="opset1">
			<data auto_pad="explicit" dilations="1,1" pads_begin="0,0" pads_end="0,0" strides="1,1"/>
			<rt_info>
				<attribute name="fused_names" value="Conv_50/WithoutBiases" version="0"/>
			</rt_info>
			<input>
				<port id="0">
					<dim>1</dim>
					<dim>96</dim>
					<dim>80</dim>
					<dim>80</dim>
				</port>
				<port id="1">
					<dim>96</dim>
					<dim>96</dim>
					<dim>1</dim>
					<dim>1</dim>
				</port>
			</input>
			<output>
				<port id="2" precision="FP32">
					<dim>1</dim>
					<dim>96</dim>
					<dim>80</dim>
					<dim>80</dim>
				</port>
			</output>
		</layer>
		<layer id="343" name="Reshape_95467718214" type="Const" version="opset1">
			<data element_type="f32" offset="504392" shape="1,96,1,1" size="384"/>
			<output>
				<port id="0" precision="FP32">
					<dim>1</dim>
					<dim>96</dim>
					<dim>1</dim>
					<dim>1</dim>
				</port>
			</output>
		</layer>
		<layer id="344" name="Conv_50" type="Add" version="opset1">
			<data auto_broadcast="numpy"/>
			<rt_info>
				<attribute name="fused_names" value="Concat_953, Conv_50, Reshape_954" version="0"/>
			</rt_info>
			<input>
				<port id="0">
					<dim>1</dim>
					<dim>96</dim>
					<dim>80</dim>
					<dim>80</dim>
				</port>
				<port id="1">
					<dim>1</dim>
					<dim>96</dim>
					<dim>1</dim>
					<dim>1</dim>
				</port>
			</input>
			<output>
				<port id="2" names="216" precision="FP32">
					<dim>1</dim>
					<dim>96</dim>
					<dim>80</dim>
					<dim>80</dim>
				</port>
			</output>
		</layer>
		<layer id="345" name="Mul_52" type="Swish" version="opset4">
			<rt_info>
				<attribute name="fused_names" value="Mul_52, Sigmoid_51" version="0"/>
			</rt_info>
			<input>
				<port id="0">
					<dim>1</dim>
					<dim>96</dim>
					<dim>80</dim>
					<dim>80</dim>
				</port>
			</input>
			<output>
				<port id="1" names="218" precision="FP32">
					<dim>1</dim>
					<dim>96</dim>
					<dim>80</dim>
					<dim>80</dim>
				</port>
			</output>
		</layer>
		<layer id="346" name="Conv_53/WithoutBiases/fq_input_0" type="FakeQuantize" version="opset1">
			<data auto_broadcast="numpy" levels="256"/>
			<input>
				<port id="0">
					<dim>1</dim>
					<dim>96</dim>
					<dim>80</dim>
					<dim>80</dim>
				</port>
				<port id="1">
					<dim>1</dim>
					<dim>1</dim>
					<dim>1</dim>
					<dim>1</dim>
				</port>
				<port id="2">
					<dim>1</dim>
					<dim>1</dim>
					<dim>1</dim>
					<dim>1</dim>
				</port>
				<port id="3">
					<dim>1</dim>
					<dim>1</dim>
					<dim>1</dim>
					<dim>1</dim>
				</port>
				<port id="4">
					<dim>1</dim>
					<dim>1</dim>
					<dim>1</dim>
					<dim>1</dim>
				</port>
			</input>
			<output>
				<port id="5" precision="FP32">
					<dim>1</dim>
					<dim>96</dim>
					<dim>80</dim>
					<dim>80</dim>
				</port>
			</output>
		</layer>
		<layer id="347" name="model.4.m.2.cv2.conv.weight68010425/quantized1371420092" type="Const" version="opset1">
			<data element_type="i8" offset="504776" shape="96,96,3,3" size="82944"/>
			<output>
				<port id="0" precision="I8">
					<dim>96</dim>
					<dim>96</dim>
					<dim>3</dim>
					<dim>3</dim>
				</port>
			</output>
		</layer>
		<layer id="348" name="model.4.m.2.cv2.conv.weight68010425/quantized/to_f32" type="Convert" version="opset1">
			<data destination_type="f32"/>
			<input>
				<port id="0">
					<dim>96</dim>
					<dim>96</dim>
					<dim>3</dim>
					<dim>3</dim>
				</port>
			</input>
			<output>
				<port id="1" precision="FP32">
					<dim>96</dim>
					<dim>96</dim>
					<dim>3</dim>
					<dim>3</dim>
				</port>
			</output>
		</layer>
		<layer id="349" name="Conv_53/WithoutBiases/fq_weights_1/zero_point1373318781" type="Const" version="opset1">
			<data element_type="f32" offset="587720" shape="96,1,1,1" size="384"/>
			<output>
				<port id="0" precision="FP32">
					<dim>96</dim>
					<dim>1</dim>
					<dim>1</dim>
					<dim>1</dim>
				</port>
			</output>
		</layer>
		<layer id="350" name="Conv_53/WithoutBiases/fq_weights_1/minus_zp" type="Subtract" version="opset1">
			<data auto_broadcast="numpy"/>
			<input>
				<port id="0">
					<dim>96</dim>
					<dim>96</dim>
					<dim>3</dim>
					<dim>3</dim>
				</port>
				<port id="1">
					<dim>96</dim>
					<dim>1</dim>
					<dim>1</dim>
					<dim>1</dim>
				</port>
			</input>
			<output>
				<port id="2" precision="FP32">
					<dim>96</dim>
					<dim>96</dim>
					<dim>3</dim>
					<dim>3</dim>
				</port>
			</output>
		</layer>
		<layer id="351" name="Conv_53/WithoutBiases/fq_weights_1/scale1372219729" type="Const" version="opset1">
			<data element_type="f32" offset="588104" shape="96,1,1,1" size="384"/>
			<output>
				<port id="0" precision="FP32">
					<dim>96</dim>
					<dim>1</dim>
					<dim>1</dim>
					<dim>1</dim>
				</port>
			</output>
		</layer>
		<layer id="352" name="Conv_53/WithoutBiases/fq_weights_1/mulpiply_by_scale" type="Multiply" version="opset1">
			<data auto_broadcast="numpy"/>
			<input>
				<port id="0">
					<dim>96</dim>
					<dim>96</dim>
					<dim>3</dim>
					<dim>3</dim>
				</port>
				<port id="1">
					<dim>96</dim>
					<dim>1</dim>
					<dim>1</dim>
					<dim>1</dim>
				</port>
			</input>
			<output>
				<port id="2" precision="FP32">
					<dim>96</dim>
					<dim>96</dim>
					<dim>3</dim>
					<dim>3</dim>
				</port>
			</output>
		</layer>
		<layer id="353" name="Conv_53/WithoutBiases" type="Convolution" version="opset1">
			<data auto_pad="explicit" dilations="1,1" pads_begin="1,1" pads_end="1,1" strides="1,1"/>
			<rt_info>
				<attribute name="fused_names" value="Conv_53/WithoutBiases" version="0"/>
			</rt_info>
			<input>
				<port id="0">
					<dim>1</dim>
					<dim>96</dim>
					<dim>80</dim>
					<dim>80</dim>
				</port>
				<port id="1">
					<dim>96</dim>
					<dim>96</dim>
					<dim>3</dim>
					<dim>3</dim>
				</port>
			</input>
			<output>
				<port id="2" precision="FP32">
					<dim>1</dim>
					<dim>96</dim>
					<dim>80</dim>
					<dim>80</dim>
				</port>
			</output>
		</layer>
		<layer id="354" name="Reshape_100468218916" type="Const" version="opset1">
			<data element_type="f32" offset="588488" shape="1,96,1,1" size="384"/>
			<output>
				<port id="0" precision="FP32">
					<dim>1</dim>
					<dim>96</dim>
					<dim>1</dim>
					<dim>1</dim>
				</port>
			</output>
		</layer>
		<layer id="355" name="Conv_53" type="Add" version="opset1">
			<data auto_broadcast="numpy"/>
			<rt_info>
				<attribute name="fused_names" value="Concat_1003, Conv_53, Reshape_1004" version="0"/>
			</rt_info>
			<input>
				<port id="0">
					<dim>1</dim>
					<dim>96</dim>
					<dim>80</dim>
					<dim>80</dim>
				</port>
				<port id="1">
					<dim>1</dim>
					<dim>96</dim>
					<dim>1</dim>
					<dim>1</dim>
				</port>
			</input>
			<output>
				<port id="2" names="219" precision="FP32">
					<dim>1</dim>
					<dim>96</dim>
					<dim>80</dim>
					<dim>80</dim>
				</port>
			</output>
		</layer>
		<layer id="356" name="Mul_55" type="Swish" version="opset4">
			<rt_info>
				<attribute name="fused_names" value="Mul_55, Sigmoid_54" version="0"/>
			</rt_info>
			<input>
				<port id="0">
					<dim>1</dim>
					<dim>96</dim>
					<dim>80</dim>
					<dim>80</dim>
				</port>
			</input>
			<output>
				<port id="1" names="221" precision="FP32">
					<dim>1</dim>
					<dim>96</dim>
					<dim>80</dim>
					<dim>80</dim>
				</port>
			</output>
		</layer>
		<layer id="357" name="Add_56/fq_input_1" type="FakeQuantize" version="opset1">
			<data auto_broadcast="numpy" levels="256"/>
			<input>
				<port id="0">
					<dim>1</dim>
					<dim>96</dim>
					<dim>80</dim>
					<dim>80</dim>
				</port>
				<port id="1">
					<dim>1</dim>
					<dim>1</dim>
					<dim>1</dim>
					<dim>1</dim>
				</port>
				<port id="2">
					<dim>1</dim>
					<dim>1</dim>
					<dim>1</dim>
					<dim>1</dim>
				</port>
				<port id="3">
					<dim>1</dim>
					<dim>1</dim>
					<dim>1</dim>
					<dim>1</dim>
				</port>
				<port id="4">
					<dim>1</dim>
					<dim>1</dim>
					<dim>1</dim>
					<dim>1</dim>
				</port>
			</input>
			<output>
				<port id="5" precision="FP32">
					<dim>1</dim>
					<dim>96</dim>
					<dim>80</dim>
					<dim>80</dim>
				</port>
			</output>
		</layer>
		<layer id="358" name="Add_56" type="Add" version="opset1">
			<data auto_broadcast="numpy"/>
			<rt_info>
				<attribute name="fused_names" value="Add_56" version="0"/>
			</rt_info>
			<input>
				<port id="0">
					<dim>1</dim>
					<dim>96</dim>
					<dim>80</dim>
					<dim>80</dim>
				</port>
				<port id="1">
					<dim>1</dim>
					<dim>96</dim>
					<dim>80</dim>
					<dim>80</dim>
				</port>
			</input>
			<output>
				<port id="2" names="222" precision="FP32">
					<dim>1</dim>
					<dim>96</dim>
					<dim>80</dim>
					<dim>80</dim>
				</port>
			</output>
		</layer>
		<layer id="359" name="Add_63/fq_input_0" type="FakeQuantize" version="opset1">
			<data auto_broadcast="numpy" levels="256"/>
			<input>
				<port id="0">
					<dim>1</dim>
					<dim>96</dim>
					<dim>80</dim>
					<dim>80</dim>
				</port>
				<port id="1">
					<dim>1</dim>
					<dim>1</dim>
					<dim>1</dim>
					<dim>1</dim>
				</port>
				<port id="2">
					<dim>1</dim>
					<dim>1</dim>
					<dim>1</dim>
					<dim>1</dim>
				</port>
				<port id="3">
					<dim>1</dim>
					<dim>1</dim>
					<dim>1</dim>
					<dim>1</dim>
				</port>
				<port id="4">
					<dim>1</dim>
					<dim>1</dim>
					<dim>1</dim>
					<dim>1</dim>
				</port>
			</input>
			<output>
				<port id="5" precision="FP32">
					<dim>1</dim>
					<dim>96</dim>
					<dim>80</dim>
					<dim>80</dim>
				</port>
			</output>
		</layer>
		<layer id="360" name="4166417018787" type="Const" version="opset1">
			<data element_type="f32" offset="588872" shape="1,1,1,1" size="4"/>
			<output>
				<port id="0" precision="FP32">
					<dim>1</dim>
					<dim>1</dim>
					<dim>1</dim>
					<dim>1</dim>
				</port>
			</output>
		</layer>
		<layer id="361" name="4167417119930" type="Const" version="opset1">
			<data element_type="f32" offset="588876" shape="1,1,1,1" size="4"/>
			<output>
				<port id="0" precision="FP32">
					<dim>1</dim>
					<dim>1</dim>
					<dim>1</dim>
					<dim>1</dim>
				</port>
			</output>
		</layer>
		<layer id="362" name="4168417219195" type="Const" version="opset1">
			<data element_type="f32" offset="588872" shape="1,1,1,1" size="4"/>
			<output>
				<port id="0" precision="FP32">
					<dim>1</dim>
					<dim>1</dim>
					<dim>1</dim>
					<dim>1</dim>
				</port>
			</output>
		</layer>
		<layer id="363" name="4169417320122" type="Const" version="opset1">
			<data element_type="f32" offset="588876" shape="1,1,1,1" size="4"/>
			<output>
				<port id="0" precision="FP32">
					<dim>1</dim>
					<dim>1</dim>
					<dim>1</dim>
					<dim>1</dim>
				</port>
			</output>
		</layer>
		<layer id="364" name="2406241018949" type="Const" version="opset1">
			<data element_type="f32" offset="0" shape="1,1,1,1" size="4"/>
			<output>
				<port id="0" precision="FP32">
					<dim>1</dim>
					<dim>1</dim>
					<dim>1</dim>
					<dim>1</dim>
				</port>
			</output>
		</layer>
		<layer id="365" name="2407241117992" type="Const" version="opset1">
			<data element_type="f32" offset="4" shape="1,1,1,1" size="4"/>
			<output>
				<port id="0" precision="FP32">
					<dim>1</dim>
					<dim>1</dim>
					<dim>1</dim>
					<dim>1</dim>
				</port>
			</output>
		</layer>
		<layer id="366" name="2408241219111" type="Const" version="opset1">
			<data element_type="f32" offset="0" shape="1,1,1,1" size="4"/>
			<output>
				<port id="0" precision="FP32">
					<dim>1</dim>
					<dim>1</dim>
					<dim>1</dim>
					<dim>1</dim>
				</port>
			</output>
		</layer>
		<layer id="367" name="2409241318970" type="Const" version="opset1">
			<data element_type="f32" offset="4" shape="1,1,1,1" size="4"/>
			<output>
				<port id="0" precision="FP32">
					<dim>1</dim>
					<dim>1</dim>
					<dim>1</dim>
					<dim>1</dim>
				</port>
			</output>
		</layer>
		<layer id="368" name="model.4.m.3.cv1.conv.weight68610427/quantized1356420455" type="Const" version="opset1">
			<data element_type="i8" offset="588880" shape="96,96,1,1" size="9216"/>
			<output>
				<port id="0" precision="I8">
					<dim>96</dim>
					<dim>96</dim>
					<dim>1</dim>
					<dim>1</dim>
				</port>
			</output>
		</layer>
…
		<edge from-layer="986" from-port="1" to-layer="987" to-port="1"/>
		<edge from-layer="818" from-port="0" to-layer="987" to-port="2"/>
		<edge from-layer="987" from-port="3" to-layer="988" to-port="0"/>
		<edge from-layer="814" from-port="0" to-layer="988" to-port="1"/>
		<edge from-layer="815" from-port="0" to-layer="988" to-port="2"/>
		<edge from-layer="816" from-port="0" to-layer="988" to-port="3"/>
		<edge from-layer="817" from-port="0" to-layer="988" to-port="4"/>
		<edge from-layer="988" from-port="5" to-layer="989" to-port="0"/>
		<edge from-layer="418" from-port="5" to-layer="989" to-port="1"/>
		<edge from-layer="990" from-port="0" to-layer="991" to-port="0"/>
		<edge from-layer="991" from-port="1" to-layer="993" to-port="0"/>
		<edge from-layer="992" from-port="0" to-layer="993" to-port="1"/>
		<edge from-layer="993" from-port="2" to-layer="995" to-port="0"/>
		<edge from-layer="994" from-port="0" to-layer="995" to-port="1"/>
		<edge from-layer="989" from-port="2" to-layer="996" to-port="0"/>
		<edge from-layer="995" from-port="2" to-layer="996" to-port="1"/>
		<edge from-layer="996" from-port="2" to-layer="998" to-port="0"/>
		<edge from-layer="997" from-port="0" to-layer="998" to-port="1"/>
		<edge from-layer="998" from-port="2" to-layer="999" to-port="0"/>
		<edge from-layer="999" from-port="1" to-layer="1000" to-port="0"/>
		<edge from-layer="810" from-port="0" to-layer="1000" to-port="1"/>
		<edge from-layer="811" from-port="0" to-layer="1000" to-port="2"/>
		<edge from-layer="812" from-port="0" to-layer="1000" to-port="3"/>
		<edge from-layer="813" from-port="0" to-layer="1000" to-port="4"/>
		<edge from-layer="1001" from-port="0" to-layer="1002" to-port="0"/>
		<edge from-layer="1002" from-port="1" to-layer="1004" to-port="0"/>
		<edge from-layer="1003" from-port="0" to-layer="1004" to-port="1"/>
		<edge from-layer="1004" from-port="2" to-layer="1006" to-port="0"/>
		<edge from-layer="1005" from-port="0" to-layer="1006" to-port="1"/>
		<edge from-layer="1000" from-port="5" to-layer="1007" to-port="0"/>
		<edge from-layer="1006" from-port="2" to-layer="1007" to-port="1"/>
		<edge from-layer="1007" from-port="2" to-layer="1009" to-port="0"/>
		<edge from-layer="1008" from-port="0" to-layer="1009" to-port="1"/>
		<edge from-layer="1009" from-port="2" to-layer="1010" to-port="0"/>
		<edge from-layer="1010" from-port="1" to-layer="1011" to-port="0"/>
		<edge from-layer="806" from-port="0" to-layer="1011" to-port="1"/>
		<edge from-layer="807" from-port="0" to-layer="1011" to-port="2"/>
		<edge from-layer="808" from-port="0" to-layer="1011" to-port="3"/>
		<edge from-layer="809" from-port="0" to-layer="1011" to-port="4"/>
		<edge from-layer="1012" from-port="0" to-layer="1013" to-port="0"/>
		<edge from-layer="1013" from-port="1" to-layer="1015" to-port="0"/>
		<edge from-layer="1014" from-port="0" to-layer="1015" to-port="1"/>
		<edge from-layer="1015" from-port="2" to-layer="1017" to-port="0"/>
		<edge from-layer="1016" from-port="0" to-layer="1017" to-port="1"/>
		<edge from-layer="1011" from-port="5" to-layer="1018" to-port="0"/>
		<edge from-layer="1017" from-port="2" to-layer="1018" to-port="1"/>
		<edge from-layer="1018" from-port="2" to-layer="1020" to-port="0"/>
		<edge from-layer="1019" from-port="0" to-layer="1020" to-port="1"/>
		<edge from-layer="1020" from-port="2" to-layer="1021" to-port="0"/>
		<edge from-layer="1021" from-port="1" to-layer="1022" to-port="0"/>
		<edge from-layer="802" from-port="0" to-layer="1022" to-port="1"/>
		<edge from-layer="803" from-port="0" to-layer="1022" to-port="2"/>
		<edge from-layer="804" from-port="0" to-layer="1022" to-port="3"/>
		<edge from-layer="805" from-port="0" to-layer="1022" to-port="4"/>
		<edge from-layer="1023" from-port="0" to-layer="1024" to-port="0"/>
		<edge from-layer="1024" from-port="1" to-layer="1026" to-port="0"/>
		<edge from-layer="1025" from-port="0" to-layer="1026" to-port="1"/>
		<edge from-layer="1026" from-port="2" to-layer="1028" to-port="0"/>
		<edge from-layer="1027" from-port="0" to-layer="1028" to-port="1"/>
		<edge from-layer="1022" from-port="5" to-layer="1029" to-port="0"/>
		<edge from-layer="1028" from-port="2" to-layer="1029" to-port="1"/>
		<edge from-layer="1029" from-port="2" to-layer="1031" to-port="0"/>
		<edge from-layer="1030" from-port="0" to-layer="1031" to-port="1"/>
		<edge from-layer="1031" from-port="2" to-layer="1032" to-port="0"/>
		<edge from-layer="1032" from-port="1" to-layer="1033" to-port="0"/>
		<edge from-layer="798" from-port="0" to-layer="1033" to-port="1"/>
		<edge from-layer="799" from-port="0" to-layer="1033" to-port="2"/>
		<edge from-layer="800" from-port="0" to-layer="1033" to-port="3"/>
		<edge from-layer="801" from-port="0" to-layer="1033" to-port="4"/>
		<edge from-layer="1034" from-port="0" to-layer="1035" to-port="0"/>
		<edge from-layer="1035" from-port="1" to-layer="1037" to-port="0"/>
		<edge from-layer="1036" from-port="0" to-layer="1037" to-port="1"/>
		<edge from-layer="1037" from-port="2" to-layer="1039" to-port="0"/>
		<edge from-layer="1038" from-port="0" to-layer="1039" to-port="1"/>
		<edge from-layer="1033" from-port="5" to-layer="1040" to-port="0"/>
		<edge from-layer="1039" from-port="2" to-layer="1040" to-port="1"/>
		<edge from-layer="1040" from-port="2" to-layer="1042" to-port="0"/>
		<edge from-layer="1041" from-port="0" to-layer="1042" to-port="1"/>
		<edge from-layer="1042" from-port="2" to-layer="1043" to-port="0"/>
		<edge from-layer="1043" from-port="1" to-layer="1044" to-port="0"/>
		<edge from-layer="794" from-port="0" to-layer="1044" to-port="1"/>
		<edge from-layer="795" from-port="0" to-layer="1044" to-port="2"/>
		<edge from-layer="796" from-port="0" to-layer="1044" to-port="3"/>
		<edge from-layer="797" from-port="0" to-layer="1044" to-port="4"/>
		<edge from-layer="1049" from-port="0" to-layer="1050" to-port="0"/>
		<edge from-layer="1050" from-port="1" to-layer="1052" to-port="0"/>
		<edge from-layer="1051" from-port="0" to-layer="1052" to-port="1"/>
		<edge from-layer="1052" from-port="2" to-layer="1054" to-port="0"/>
		<edge from-layer="1053" from-port="0" to-layer="1054" to-port="1"/>
		<edge from-layer="989" from-port="2" to-layer="1055" to-port="0"/>
		<edge from-layer="1054" from-port="2" to-layer="1055" to-port="1"/>
		<edge from-layer="1055" from-port="2" to-layer="1057" to-port="0"/>
		<edge from-layer="1056" from-port="0" to-layer="1057" to-port="1"/>
		<edge from-layer="1057" from-port="2" to-layer="1058" to-port="0"/>
		<edge from-layer="1058" from-port="1" to-layer="1059" to-port="0"/>
		<edge from-layer="1045" from-port="0" to-layer="1059" to-port="1"/>
		<edge from-layer="1046" from-port="0" to-layer="1059" to-port="2"/>
		<edge from-layer="1047" from-port="0" to-layer="1059" to-port="3"/>
		<edge from-layer="1048" from-port="0" to-layer="1059" to-port="4"/>
		<edge from-layer="1044" from-port="5" to-layer="1060" to-port="0"/>
		<edge from-layer="1059" from-port="5" to-layer="1060" to-port="1"/>
		<edge from-layer="1061" from-port="0" to-layer="1062" to-port="0"/>
		<edge from-layer="1062" from-port="1" to-layer="1064" to-port="0"/>
		<edge from-layer="1063" from-port="0" to-layer="1064" to-port="1"/>
		<edge from-layer="1064" from-port="2" to-layer="1066" to-port="0"/>
		<edge from-layer="1065" from-port="0" to-layer="1066" to-port="1"/>
		<edge from-layer="1060" from-port="2" to-layer="1067" to-port="0"/>
		<edge from-layer="1066" from-port="2" to-layer="1067" to-port="1"/>
		<edge from-layer="1067" from-port="2" to-layer="1069" to-port="0"/>
		<edge from-layer="1068" from-port="0" to-layer="1069" to-port="1"/>
		<edge from-layer="1069" from-port="2" to-layer="1070" to-port="0"/>
		<edge from-layer="1070" from-port="1" to-layer="1071" to-port="0"/>
		<edge from-layer="790" from-port="0" to-layer="1071" to-port="1"/>
		<edge from-layer="791" from-port="0" to-layer="1071" to-port="2"/>
		<edge from-layer="792" from-port="0" to-layer="1071" to-port="3"/>
		<edge from-layer="793" from-port="0" to-layer="1071" to-port="4"/>
		<edge from-layer="1072" from-port="0" to-layer="1073" to-port="0"/>
		<edge from-layer="1073" from-port="1" to-layer="1075" to-port="0"/>
		<edge from-layer="1074" from-port="0" to-layer="1075" to-port="1"/>
		<edge from-layer="1075" from-port="2" to-layer="1077" to-port="0"/>
		<edge from-layer="1076" from-port="0" to-layer="1077" to-port="1"/>
		<edge from-layer="1071" from-port="5" to-layer="1078" to-port="0"/>
		<edge from-layer="1077" from-port="2" to-layer="1078" to-port="1"/>
		<edge from-layer="1078" from-port="2" to-layer="1080" to-port="0"/>
		<edge from-layer="1079" from-port="0" to-layer="1080" to-port="1"/>
		<edge from-layer="1080" from-port="2" to-layer="1084" to-port="0"/>
		<edge from-layer="1084" from-port="1" to-layer="1087" to-port="0"/>
		<edge from-layer="1085" from-port="0" to-layer="1087" to-port="1"/>
		<edge from-layer="1086" from-port="0" to-layer="1087" to-port="2"/>
		<edge from-layer="1081" from-port="0" to-layer="1088" to-port="0"/>
		<edge from-layer="1082" from-port="0" to-layer="1088" to-port="1"/>
		<edge from-layer="1083" from-port="0" to-layer="1088" to-port="2"/>
		<edge from-layer="1087" from-port="3" to-layer="1088" to-port="3"/>
		<edge from-layer="1080" from-port="2" to-layer="1089" to-port="0"/>
		<edge from-layer="1088" from-port="4" to-layer="1089" to-port="1"/>
		<edge from-layer="1089" from-port="2" to-layer="1091" to-port="0"/>
		<edge from-layer="1090" from-port="0" to-layer="1091" to-port="1"/>
		<edge from-layer="1121" from-port="0" to-layer="1122" to-port="0"/>
		<edge from-layer="1122" from-port="1" to-layer="1124" to-port="0"/>
		<edge from-layer="1123" from-port="0" to-layer="1124" to-port="1"/>
		<edge from-layer="1124" from-port="2" to-layer="1126" to-port="0"/>
		<edge from-layer="1125" from-port="0" to-layer="1126" to-port="1"/>
		<edge from-layer="1071" from-port="5" to-layer="1127" to-port="0"/>
		<edge from-layer="1126" from-port="2" to-layer="1127" to-port="1"/>
		<edge from-layer="1127" from-port="2" to-layer="1129" to-port="0"/>
		<edge from-layer="1128" from-port="0" to-layer="1129" to-port="1"/>
		<edge from-layer="1129" from-port="2" to-layer="1130" to-port="0"/>
		<edge from-layer="1130" from-port="1" to-layer="1131" to-port="0"/>
		<edge from-layer="1117" from-port="0" to-layer="1131" to-port="1"/>
		<edge from-layer="1118" from-port="0" to-layer="1131" to-port="2"/>
		<edge from-layer="1119" from-port="0" to-layer="1131" to-port="3"/>
		<edge from-layer="1120" from-port="0" to-layer="1131" to-port="4"/>
		<edge from-layer="1131" from-port="5" to-layer="1132" to-port="0"/>
		<edge from-layer="982" from-port="5" to-layer="1132" to-port="1"/>
		<edge from-layer="1133" from-port="0" to-layer="1134" to-port="0"/>
		<edge from-layer="1134" from-port="1" to-layer="1136" to-port="0"/>
		<edge from-layer="1135" from-port="0" to-layer="1136" to-port="1"/>
		<edge from-layer="1136" from-port="2" to-layer="1138" to-port="0"/>
		<edge from-layer="1137" from-port="0" to-layer="1138" to-port="1"/>
		<edge from-layer="1132" from-port="2" to-layer="1139" to-port="0"/>
		<edge from-layer="1138" from-port="2" to-layer="1139" to-port="1"/>
		<edge from-layer="1139" from-port="2" to-layer="1141" to-port="0"/>
		<edge from-layer="1140" from-port="0" to-layer="1141" to-port="1"/>
		<edge from-layer="1141" from-port="2" to-layer="1142" to-port="0"/>
		<edge from-layer="1142" from-port="1" to-layer="1143" to-port="0"/>
		<edge from-layer="1113" from-port="0" to-layer="1143" to-port="1"/>
		<edge from-layer="1114" from-port="0" to-layer="1143" to-port="2"/>
		<edge from-layer="1115" from-port="0" to-layer="1143" to-port="3"/>
		<edge from-layer="1116" from-port="0" to-layer="1143" to-port="4"/>
		<edge from-layer="1144" from-port="0" to-layer="1145" to-port="0"/>
		<edge from-layer="1145" from-port="1" to-layer="1147" to-port="0"/>
		<edge from-layer="1146" from-port="0" to-layer="1147" to-port="1"/>
		<edge from-layer="1147" from-port="2" to-layer="1149" to-port="0"/>
		<edge from-layer="1148" from-port="0" to-layer="1149" to-port="1"/>
		<edge from-layer="1143" from-port="5" to-layer="1150" to-port="0"/>
		<edge from-layer="1149" from-port="2" to-layer="1150" to-port="1"/>
		<edge from-layer="1150" from-port="2" to-layer="1152" to-port="0"/>
		<edge from-layer="1151" from-port="0" to-layer="1152" to-port="1"/>
		<edge from-layer="1152" from-port="2" to-layer="1153" to-port="0"/>
		<edge from-layer="1153" from-port="1" to-layer="1154" to-port="0"/>
		<edge from-layer="1109" from-port="0" to-layer="1154" to-port="1"/>
		<edge from-layer="1110" from-port="0" to-layer="1154" to-port="2"/>
		<edge from-layer="1111" from-port="0" to-layer="1154" to-port="3"/>
		<edge from-layer="1112" from-port="0" to-layer="1154" to-port="4"/>
		<edge from-layer="1155" from-port="0" to-layer="1156" to-port="0"/>
		<edge from-layer="1156" from-port="1" to-layer="1158" to-port="0"/>
		<edge from-layer="1157" from-port="0" to-layer="1158" to-port="1"/>
		<edge from-layer="1158" from-port="2" to-layer="1160" to-port="0"/>
		<edge from-layer="1159" from-port="0" to-layer="1160" to-port="1"/>
		<edge from-layer="1154" from-port="5" to-layer="1161" to-port="0"/>
		<edge from-layer="1160" from-port="2" to-layer="1161" to-port="1"/>
		<edge from-layer="1161" from-port="2" to-layer="1163" to-port="0"/>
		<edge from-layer="1162" from-port="0" to-layer="1163" to-port="1"/>
		<edge from-layer="1163" from-port="2" to-layer="1164" to-port="0"/>
		<edge from-layer="1164" from-port="1" to-layer="1165" to-port="0"/>
		<edge from-layer="1105" from-port="0" to-layer="1165" to-port="1"/>
		<edge from-layer="1106" from-port="0" to-layer="1165" to-port="2"/>
		<edge from-layer="1107" from-port="0" to-layer="1165" to-port="3"/>
		<edge from-layer="1108" from-port="0" to-layer="1165" to-port="4"/>
		<edge from-layer="1166" from-port="0" to-layer="1167" to-port="0"/>
		<edge from-layer="1167" from-port="1" to-layer="1169" to-port="0"/>
		<edge from-layer="1168" from-port="0" to-layer="1169" to-port="1"/>
		<edge from-layer="1169" from-port="2" to-layer="1171" to-port="0"/>
		<edge from-layer="1170" from-port="0" to-layer="1171" to-port="1"/>
		<edge from-layer="1165" from-port="5" to-layer="1172" to-port="0"/>
		<edge from-layer="1171" from-port="2" to-layer="1172" to-port="1"/>
		<edge from-layer="1172" from-port="2" to-layer="1174" to-port="0"/>
		<edge from-layer="1173" from-port="0" to-layer="1174" to-port="1"/>
		<edge from-layer="1174" from-port="2" to-layer="1175" to-port="0"/>
		<edge from-layer="1175" from-port="1" to-layer="1176" to-port="0"/>
		<edge from-layer="1101" from-port="0" to-layer="1176" to-port="1"/>
		<edge from-layer="1102" from-port="0" to-layer="1176" to-port="2"/>
		<edge from-layer="1103" from-port="0" to-layer="1176" to-port="3"/>
		<edge from-layer="1104" from-port="0" to-layer="1176" to-port="4"/>
		<edge from-layer="1177" from-port="0" to-layer="1178" to-port="0"/>
		<edge from-layer="1178" from-port="1" to-layer="1180" to-port="0"/>
		<edge from-layer="1179" from-port="0" to-layer="1180" to-port="1"/>
		<edge from-layer="1180" from-port="2" to-layer="1182" to-port="0"/>
		<edge from-layer="1181" from-port="0" to-layer="1182" to-port="1"/>
		<edge from-layer="1176" from-port="5" to-layer="1183" to-port="0"/>
		<edge from-layer="1182" from-port="2" to-layer="1183" to-port="1"/>
		<edge from-layer="1183" from-port="2" to-layer="1185" to-port="0"/>
		<edge from-layer="1184" from-port="0" to-layer="1185" to-port="1"/>
		<edge from-layer="1185" from-port="2" to-layer="1186" to-port="0"/>
		<edge from-layer="1186" from-port="1" to-layer="1187" to-port="0"/>
		<edge from-layer="1097" from-port="0" to-layer="1187" to-port="1"/>
		<edge from-layer="1098" from-port="0" to-layer="1187" to-port="2"/>
		<edge from-layer="1099" from-port="0" to-layer="1187" to-port="3"/>
		<edge from-layer="1100" from-port="0" to-layer="1187" to-port="4"/>
		<edge from-layer="1192" from-port="0" to-layer="1193" to-port="0"/>
		<edge from-layer="1193" from-port="1" to-layer="1195" to-port="0"/>
		<edge from-layer="1194" from-port="0" to-layer="1195" to-port="1"/>
		<edge from-layer="1195" from-port="2" to-layer="1197" to-port="0"/>
		<edge from-layer="1196" from-port="0" to-layer="1197" to-port="1"/>
		<edge from-layer="1132" from-port="2" to-layer="1198" to-port="0"/>
		<edge from-layer="1197" from-port="2" to-layer="1198" to-port="1"/>
		<edge from-layer="1198" from-port="2" to-layer="1200" to-port="0"/>
		<edge from-layer="1199" from-port="0" to-layer="1200" to-port="1"/>
		<edge from-layer="1200" from-port="2" to-layer="1201" to-port="0"/>
		<edge from-layer="1201" from-port="1" to-layer="1202" to-port="0"/>
		<edge from-layer="1188" from-port="0" to-layer="1202" to-port="1"/>
		<edge from-layer="1189" from-port="0" to-layer="1202" to-port="2"/>
		<edge from-layer="1190" from-port="0" to-layer="1202" to-port="3"/>
		<edge from-layer="1191" from-port="0" to-layer="1202" to-port="4"/>
		<edge from-layer="1187" from-port="5" to-layer="1203" to-port="0"/>
		<edge from-layer="1202" from-port="5" to-layer="1203" to-port="1"/>
		<edge from-layer="1204" from-port="0" to-layer="1205" to-port="0"/>
		<edge from-layer="1205" from-port="1" to-layer="1207" to-port="0"/>
		<edge from-layer="1206" from-port="0" to-layer="1207" to-port="1"/>
		<edge from-layer="1207" from-port="2" to-layer="1209" to-port="0"/>
		<edge from-layer="1208" from-port="0" to-layer="1209" to-port="1"/>
		<edge from-layer="1203" from-port="2" to-layer="1210" to-port="0"/>
		<edge from-layer="1209" from-port="2" to-layer="1210" to-port="1"/>
		<edge from-layer="1210" from-port="2" to-layer="1212" to-port="0"/>
		<edge from-layer="1211" from-port="0" to-layer="1212" to-port="1"/>
		<edge from-layer="1212" from-port="2" to-layer="1213" to-port="0"/>
		<edge from-layer="1213" from-port="1" to-layer="1214" to-port="0"/>
		<edge from-layer="1093" from-port="0" to-layer="1214" to-port="1"/>
		<edge from-layer="1094" from-port="0" to-layer="1214" to-port="2"/>
		<edge from-layer="1095" from-port="0" to-layer="1214" to-port="3"/>
		<edge from-layer="1096" from-port="0" to-layer="1214" to-port="4"/>
		<edge from-layer="1215" from-port="0" to-layer="1216" to-port="0"/>
		<edge from-layer="1216" from-port="1" to-layer="1218" to-port="0"/>
		<edge from-layer="1217" from-port="0" to-layer="1218" to-port="1"/>
		<edge from-layer="1218" from-port="2" to-layer="1220" to-port="0"/>
		<edge from-layer="1219" from-port="0" to-layer="1220" to-port="1"/>
		<edge from-layer="1214" from-port="5" to-layer="1221" to-port="0"/>
		<edge from-layer="1220" from-port="2" to-layer="1221" to-port="1"/>
		<edge from-layer="1221" from-port="2" to-layer="1223" to-port="0"/>
		<edge from-layer="1222" from-port="0" to-layer="1223" to-port="1"/>
		<edge from-layer="1223" from-port="2" to-layer="1227" to-port="0"/>
		<edge from-layer="1227" from-port="1" to-layer="1230" to-port="0"/>
		<edge from-layer="1228" from-port="0" to-layer="1230" to-port="1"/>
		<edge from-layer="1229" from-port="0" to-layer="1230" to-port="2"/>
		<edge from-layer="1224" from-port="0" to-layer="1231" to-port="0"/>
		<edge from-layer="1225" from-port="0" to-layer="1231" to-port="1"/>
		<edge from-layer="1226" from-port="0" to-layer="1231" to-port="2"/>
		<edge from-layer="1230" from-port="3" to-layer="1231" to-port="3"/>
		<edge from-layer="1223" from-port="2" to-layer="1232" to-port="0"/>
		<edge from-layer="1231" from-port="4" to-layer="1232" to-port="1"/>
		<edge from-layer="1232" from-port="2" to-layer="1234" to-port="0"/>
		<edge from-layer="1233" from-port="0" to-layer="1234" to-port="1"/>
		<edge from-layer="1264" from-port="0" to-layer="1265" to-port="0"/>
		<edge from-layer="1265" from-port="1" to-layer="1267" to-port="0"/>
		<edge from-layer="1266" from-port="0" to-layer="1267" to-port="1"/>
		<edge from-layer="1267" from-port="2" to-layer="1269" to-port="0"/>
		<edge from-layer="1268" from-port="0" to-layer="1269" to-port="1"/>
		<edge from-layer="1214" from-port="5" to-layer="1270" to-port="0"/>
		<edge from-layer="1269" from-port="2" to-layer="1270" to-port="1"/>
		<edge from-layer="1270" from-port="2" to-layer="1272" to-port="0"/>
		<edge from-layer="1271" from-port="0" to-layer="1272" to-port="1"/>
		<edge from-layer="1272" from-port="2" to-layer="1273" to-port="0"/>
		<edge from-layer="1273" from-port="1" to-layer="1274" to-port="0"/>
		<edge from-layer="1260" from-port="0" to-layer="1274" to-port="1"/>
		<edge from-layer="1261" from-port="0" to-layer="1274" to-port="2"/>
		<edge from-layer="1262" from-port="0" to-layer="1274" to-port="3"/>
		<edge from-layer="1263" from-port="0" to-layer="1274" to-port="4"/>
		<edge from-layer="1274" from-port="5" to-layer="1275" to-port="0"/>
		<edge from-layer="882" from-port="5" to-layer="1275" to-port="1"/>
		<edge from-layer="1276" from-port="0" to-layer="1277" to-port="0"/>
		<edge from-layer="1277" from-port="1" to-layer="1279" to-port="0"/>
		<edge from-layer="1278" from-port="0" to-layer="1279" to-port="1"/>
		<edge from-layer="1279" from-port="2" to-layer="1281" to-port="0"/>
		<edge from-layer="1280" from-port="0" to-layer="1281" to-port="1"/>
		<edge from-layer="1275" from-port="2" to-layer="1282" to-port="0"/>
		<edge from-layer="1281" from-port="2" to-layer="1282" to-port="1"/>
		<edge from-layer="1282" from-port="2" to-layer="1284" to-port="0"/>
		<edge from-layer="1283" from-port="0" to-layer="1284" to-port="1"/>
		<edge from-layer="1284" from-port="2" to-layer="1285" to-port="0"/>
		<edge from-layer="1285" from-port="1" to-layer="1286" to-port="0"/>
		<edge from-layer="1256" from-port="0" to-layer="1286" to-port="1"/>
		<edge from-layer="1257" from-port="0" to-layer="1286" to-port="2"/>
		<edge from-layer="1258" from-port="0" to-layer="1286" to-port="3"/>
		<edge from-layer="1259" from-port="0" to-layer="1286" to-port="4"/>
		<edge from-layer="1287" from-port="0" to-layer="1288" to-port="0"/>
		<edge from-layer="1288" from-port="1" to-layer="1290" to-port="0"/>
		<edge from-layer="1289" from-port="0" to-layer="1290" to-port="1"/>
		<edge from-layer="1290" from-port="2" to-layer="1292" to-port="0"/>
		<edge from-layer="1291" from-port="0" to-layer="1292" to-port="1"/>
		<edge from-layer="1286" from-port="5" to-layer="1293" to-port="0"/>
		<edge from-layer="1292" from-port="2" to-layer="1293" to-port="1"/>
		<edge from-layer="1293" from-port="2" to-layer="1295" to-port="0"/>
		<edge from-layer="1294" from-port="0" to-layer="1295" to-port="1"/>
		<edge from-layer="1295" from-port="2" to-layer="1296" to-port="0"/>
		<edge from-layer="1296" from-port="1" to-layer="1297" to-port="0"/>
		<edge from-layer="1252" from-port="0" to-layer="1297" to-port="1"/>
		<edge from-layer="1253" from-port="0" to-layer="1297" to-port="2"/>
		<edge from-layer="1254" from-port="0" to-layer="1297" to-port="3"/>
		<edge from-layer="1255" from-port="0" to-layer="1297" to-port="4"/>
		<edge from-layer="1298" from-port="0" to-layer="1299" to-port="0"/>
		<edge from-layer="1299" from-port="1" to-layer="1301" to-port="0"/>
		<edge from-layer="1300" from-port="0" to-layer="1301" to-port="1"/>
		<edge from-layer="1301" from-port="2" to-layer="1303" to-port="0"/>
		<edge from-layer="1302" from-port="0" to-layer="1303" to-port="1"/>
		<edge from-layer="1297" from-port="5" to-layer="1304" to-port="0"/>
		<edge from-layer="1303" from-port="2" to-layer="1304" to-port="1"/>
		<edge from-layer="1304" from-port="2" to-layer="1306" to-port="0"/>
		<edge from-layer="1305" from-port="0" to-layer="1306" to-port="1"/>
		<edge from-layer="1306" from-port="2" to-layer="1307" to-port="0"/>
		<edge from-layer="1307" from-port="1" to-layer="1308" to-port="0"/>
		<edge from-layer="1248" from-port="0" to-layer="1308" to-port="1"/>
		<edge from-layer="1249" from-port="0" to-layer="1308" to-port="2"/>
		<edge from-layer="1250" from-port="0" to-layer="1308" to-port="3"/>
		<edge from-layer="1251" from-port="0" to-layer="1308" to-port="4"/>
		<edge from-layer="1309" from-port="0" to-layer="1310" to-port="0"/>
		<edge from-layer="1310" from-port="1" to-layer="1312" to-port="0"/>
		<edge from-layer="1311" from-port="0" to-layer="1312" to-port="1"/>
		<edge from-layer="1312" from-port="2" to-layer="1314" to-port="0"/>
		<edge from-layer="1313" from-port="0" to-layer="1314" to-port="1"/>
		<edge from-layer="1308" from-port="5" to-layer="1315" to-port="0"/>
		<edge from-layer="1314" from-port="2" to-layer="1315" to-port="1"/>
		<edge from-layer="1315" from-port="2" to-layer="1317" to-port="0"/>
		<edge from-layer="1316" from-port="0" to-layer="1317" to-port="1"/>
		<edge from-layer="1317" from-port="2" to-layer="1318" to-port="0"/>
		<edge from-layer="1318" from-port="1" to-layer="1319" to-port="0"/>
		<edge from-layer="1244" from-port="0" to-layer="1319" to-port="1"/>
		<edge from-layer="1245" from-port="0" to-layer="1319" to-port="2"/>
		<edge from-layer="1246" from-port="0" to-layer="1319" to-port="3"/>
		<edge from-layer="1247" from-port="0" to-layer="1319" to-port="4"/>
		<edge from-layer="1320" from-port="0" to-layer="1321" to-port="0"/>
		<edge from-layer="1321" from-port="1" to-layer="1323" to-port="0"/>
		<edge from-layer="1322" from-port="0" to-layer="1323" to-port="1"/>
		<edge from-layer="1323" from-port="2" to-layer="1325" to-port="0"/>
		<edge from-layer="1324" from-port="0" to-layer="1325" to-port="1"/>
		<edge from-layer="1319" from-port="5" to-layer="1326" to-port="0"/>
		<edge from-layer="1325" from-port="2" to-layer="1326" to-port="1"/>
		<edge from-layer="1326" from-port="2" to-layer="1328" to-port="0"/>
		<edge from-layer="1327" from-port="0" to-layer="1328" to-port="1"/>
		<edge from-layer="1328" from-port="2" to-layer="1329" to-port="0"/>
		<edge from-layer="1329" from-port="1" to-layer="1330" to-port="0"/>
		<edge from-layer="1240" from-port="0" to-layer="1330" to-port="1"/>
		<edge from-layer="1241" from-port="0" to-layer="1330" to-port="2"/>
		<edge from-layer="1242" from-port="0" to-layer="1330" to-port="3"/>
		<edge from-layer="1243" from-port="0" to-layer="1330" to-port="4"/>
		<edge from-layer="1335" from-port="0" to-layer="1336" to-port="0"/>
		<edge from-layer="1336" from-port="1" to-layer="1338" to-port="0"/>
		<edge from-layer="1337" from-port="0" to-layer="1338" to-port="1"/>
		<edge from-layer="1338" from-port="2" to-layer="1340" to-port="0"/>
		<edge from-layer="1339" from-port="0" to-layer="1340" to-port="1"/>
		<edge from-layer="1275" from-port="2" to-layer="1341" to-port="0"/>
		<edge from-layer="1340" from-port="2" to-layer="1341" to-port="1"/>
		<edge from-layer="1341" from-port="2" to-layer="1343" to-port="0"/>
		<edge from-layer="1342" from-port="0" to-layer="1343" to-port="1"/>
		<edge from-layer="1343" from-port="2" to-layer="1344" to-port="0"/>
		<edge from-layer="1344" from-port="1" to-layer="1345" to-port="0"/>
		<edge from-layer="1331" from-port="0" to-layer="1345" to-port="1"/>
		<edge from-layer="1332" from-port="0" to-layer="1345" to-port="2"/>
		<edge from-layer="1333" from-port="0" to-layer="1345" to-port="3"/>
		<edge from-layer="1334" from-port="0" to-layer="1345" to-port="4"/>
		<edge from-layer="1330" from-port="5" to-layer="1346" to-port="0"/>
		<edge from-layer="1345" from-port="5" to-layer="1346" to-port="1"/>
		<edge from-layer="1347" from-port="0" to-layer="1348" to-port="0"/>
		<edge from-layer="1348" from-port="1" to-layer="1350" to-port="0"/>
		<edge from-layer="1349" from-port="0" to-layer="1350" to-port="1"/>
		<edge from-layer="1350" from-port="2" to-layer="1352" to-port="0"/>
		<edge from-layer="1351" from-port="0" to-layer="1352" to-port="1"/>
		<edge from-layer="1346" from-port="2" to-layer="1353" to-port="0"/>
		<edge from-layer="1352" from-port="2" to-layer="1353" to-port="1"/>
		<edge from-layer="1353" from-port="2" to-layer="1355" to-port="0"/>
		<edge from-layer="1354" from-port="0" to-layer="1355" to-port="1"/>
		<edge from-layer="1355" from-port="2" to-layer="1356" to-port="0"/>
		<edge from-layer="1356" from-port="1" to-layer="1357" to-port="0"/>
		<edge from-layer="1236" from-port="0" to-layer="1357" to-port="1"/>
		<edge from-layer="1237" from-port="0" to-layer="1357" to-port="2"/>
		<edge from-layer="1238" from-port="0" to-layer="1357" to-port="3"/>
		<edge from-layer="1239" from-port="0" to-layer="1357" to-port="4"/>
		<edge from-layer="1358" from-port="0" to-layer="1359" to-port="0"/>
		<edge from-layer="1359" from-port="1" to-layer="1361" to-port="0"/>
		<edge from-layer="1360" from-port="0" to-layer="1361" to-port="1"/>
		<edge from-layer="1361" from-port="2" to-layer="1363" to-port="0"/>
		<edge from-layer="1362" from-port="0" to-layer="1363" to-port="1"/>
		<edge from-layer="1357" from-port="5" to-layer="1364" to-port="0"/>
		<edge from-layer="1363" from-port="2" to-layer="1364" to-port="1"/>
		<edge from-layer="1364" from-port="2" to-layer="1366" to-port="0"/>
		<edge from-layer="1365" from-port="0" to-layer="1366" to-port="1"/>
		<edge from-layer="1366" from-port="2" to-layer="1370" to-port="0"/>
		<edge from-layer="1370" from-port="1" to-layer="1373" to-port="0"/>
		<edge from-layer="1371" from-port="0" to-layer="1373" to-port="1"/>
		<edge from-layer="1372" from-port="0" to-layer="1373" to-port="2"/>
		<edge from-layer="1367" from-port="0" to-layer="1374" to-port="0"/>
		<edge from-layer="1368" from-port="0" to-layer="1374" to-port="1"/>
		<edge from-layer="1369" from-port="0" to-layer="1374" to-port="2"/>
		<edge from-layer="1373" from-port="3" to-layer="1374" to-port="3"/>
		<edge from-layer="1366" from-port="2" to-layer="1375" to-port="0"/>
		<edge from-layer="1374" from-port="4" to-layer="1375" to-port="1"/>
		<edge from-layer="1375" from-port="2" to-layer="1377" to-port="0"/>
		<edge from-layer="1376" from-port="0" to-layer="1377" to-port="1"/>
		<edge from-layer="1091" from-port="2" to-layer="1392" to-port="0"/>
		<edge from-layer="1392" from-port="1" to-layer="1393" to-port="0"/>
		<edge from-layer="1388" from-port="0" to-layer="1393" to-port="1"/>
		<edge from-layer="1389" from-port="0" to-layer="1393" to-port="2"/>
		<edge from-layer="1390" from-port="0" to-layer="1393" to-port="3"/>
		<edge from-layer="1391" from-port="0" to-layer="1393" to-port="4"/>
		<edge from-layer="1393" from-port="5" to-layer="1397" to-port="0"/>
		<edge from-layer="1394" from-port="0" to-layer="1397" to-port="1"/>
		<edge from-layer="1395" from-port="0" to-layer="1397" to-port="2"/>
		<edge from-layer="1396" from-port="0" to-layer="1397" to-port="3"/>
		<edge from-layer="1398" from-port="0" to-layer="1399" to-port="0"/>
		<edge from-layer="1399" from-port="1" to-layer="1401" to-port="0"/>
		<edge from-layer="1400" from-port="0" to-layer="1401" to-port="1"/>
		<edge from-layer="1401" from-port="2" to-layer="1403" to-port="0"/>
		<edge from-layer="1402" from-port="0" to-layer="1403" to-port="1"/>
		<edge from-layer="1397" from-port="4" to-layer="1404" to-port="0"/>
		<edge from-layer="1403" from-port="2" to-layer="1404" to-port="1"/>
		<edge from-layer="1404" from-port="2" to-layer="1405" to-port="0"/>
		<edge from-layer="1384" from-port="0" to-layer="1405" to-port="1"/>
		<edge from-layer="1385" from-port="0" to-layer="1405" to-port="2"/>
		<edge from-layer="1386" from-port="0" to-layer="1405" to-port="3"/>
		<edge from-layer="1387" from-port="0" to-layer="1405" to-port="4"/>
		<edge from-layer="1406" from-port="0" to-layer="1407" to-port="0"/>
		<edge from-layer="1407" from-port="1" to-layer="1409" to-port="0"/>
		<edge from-layer="1408" from-port="0" to-layer="1409" to-port="1"/>
		<edge from-layer="1409" from-port="2" to-layer="1411" to-port="0"/>
		<edge from-layer="1410" from-port="0" to-layer="1411" to-port="1"/>
		<edge from-layer="1405" from-port="5" to-layer="1412" to-port="0"/>
		<edge from-layer="1411" from-port="2" to-layer="1412" to-port="1"/>
		<edge from-layer="1412" from-port="2" to-layer="1413" to-port="0"/>
		<edge from-layer="1380" from-port="0" to-layer="1413" to-port="1"/>
		<edge from-layer="1381" from-port="0" to-layer="1413" to-port="2"/>
		<edge from-layer="1382" from-port="0" to-layer="1413" to-port="3"/>
		<edge from-layer="1383" from-port="0" to-layer="1413" to-port="4"/>
		<edge from-layer="1413" from-port="5" to-layer="1414" to-port="0"/>
		<edge from-layer="1379" from-port="0" to-layer="1414" to-port="1"/>
		<edge from-layer="1414" from-port="2" to-layer="1416" to-port="0"/>
		<edge from-layer="1415" from-port="0" to-layer="1416" to-port="1"/>
		<edge from-layer="1393" from-port="5" to-layer="1429" to-port="0"/>
		<edge from-layer="1426" from-port="0" to-layer="1429" to-port="1"/>
		<edge from-layer="1427" from-port="0" to-layer="1429" to-port="2"/>
		<edge from-layer="1428" from-port="0" to-layer="1429" to-port="3"/>
		<edge from-layer="1430" from-port="0" to-layer="1431" to-port="0"/>
		<edge from-layer="1431" from-port="1" to-layer="1433" to-port="0"/>
		<edge from-layer="1432" from-port="0" to-layer="1433" to-port="1"/>
		<edge from-layer="1433" from-port="2" to-layer="1435" to-port="0"/>
		<edge from-layer="1434" from-port="0" to-layer="1435" to-port="1"/>
		<edge from-layer="1429" from-port="4" to-layer="1436" to-port="0"/>
		<edge from-layer="1435" from-port="2" to-layer="1436" to-port="1"/>
		<edge from-layer="1436" from-port="2" to-layer="1437" to-port="0"/>
		<edge from-layer="1422" from-port="0" to-layer="1437" to-port="1"/>
		<edge from-layer="1423" from-port="0" to-layer="1437" to-port="2"/>
		<edge from-layer="1424" from-port="0" to-layer="1437" to-port="3"/>
		<edge from-layer="1425" from-port="0" to-layer="1437" to-port="4"/>
		<edge from-layer="1437" from-port="5" to-layer="1438" to-port="0"/>
		<edge from-layer="1421" from-port="0" to-layer="1438" to-port="1"/>
		<edge from-layer="1438" from-port="2" to-layer="1439" to-port="0"/>
		<edge from-layer="1417" from-port="0" to-layer="1439" to-port="1"/>
		<edge from-layer="1418" from-port="0" to-layer="1439" to-port="2"/>
		<edge from-layer="1419" from-port="0" to-layer="1439" to-port="3"/>
		<edge from-layer="1420" from-port="0" to-layer="1439" to-port="4"/>
		<edge from-layer="1440" from-port="0" to-layer="1441" to-port="0"/>
		<edge from-layer="1441" from-port="1" to-layer="1443" to-port="0"/>
		<edge from-layer="1442" from-port="0" to-layer="1443" to-port="1"/>
		<edge from-layer="1443" from-port="2" to-layer="1445" to-port="0"/>
		<edge from-layer="1444" from-port="0" to-layer="1445" to-port="1"/>
		<edge from-layer="1439" from-port="5" to-layer="1446" to-port="0"/>
		<edge from-layer="1445" from-port="2" to-layer="1446" to-port="1"/>
		<edge from-layer="1392" from-port="1" to-layer="1450" to-port="0"/>
		<edge from-layer="1447" from-port="0" to-layer="1450" to-port="1"/>
		<edge from-layer="1448" from-port="0" to-layer="1450" to-port="2"/>
		<edge from-layer="1449" from-port="0" to-layer="1450" to-port="3"/>
		<edge from-layer="1416" from-port="2" to-layer="1451" to-port="0"/>
		<edge from-layer="1446" from-port="2" to-layer="1451" to-port="1"/>
		<edge from-layer="1450" from-port="4" to-layer="1451" to-port="2"/>
		<edge from-layer="1084" from-port="1" to-layer="1454" to-port="0"/>
		<edge from-layer="1452" from-port="0" to-layer="1454" to-port="1"/>
		<edge from-layer="1453" from-port="0" to-layer="1454" to-port="2"/>
		<edge from-layer="1454" from-port="3" to-layer="1457" to-port="0"/>
		<edge from-layer="1455" from-port="0" to-layer="1457" to-port="1"/>
		<edge from-layer="1456" from-port="0" to-layer="1457" to-port="2"/>
		<edge from-layer="1451" from-port="3" to-layer="1458" to-port="0"/>
		<edge from-layer="1457" from-port="3" to-layer="1458" to-port="1"/>
		<edge from-layer="1234" from-port="2" to-layer="1472" to-port="0"/>
		<edge from-layer="1472" from-port="1" to-layer="1473" to-port="0"/>
		<edge from-layer="1468" from-port="0" to-layer="1473" to-port="1"/>
		<edge from-layer="1469" from-port="0" to-layer="1473" to-port="2"/>
		<edge from-layer="1470" from-port="0" to-layer="1473" to-port="3"/>
		<edge from-layer="1471" from-port="0" to-layer="1473" to-port="4"/>
		<edge from-layer="1473" from-port="5" to-layer="1477" to-port="0"/>
		<edge from-layer="1474" from-port="0" to-layer="1477" to-port="1"/>
		<edge from-layer="1475" from-port="0" to-layer="1477" to-port="2"/>
		<edge from-layer="1476" from-port="0" to-layer="1477" to-port="3"/>
		<edge from-layer="1478" from-port="0" to-layer="1479" to-port="0"/>
		<edge from-layer="1479" from-port="1" to-layer="1481" to-port="0"/>
		<edge from-layer="1480" from-port="0" to-layer="1481" to-port="1"/>
		<edge from-layer="1481" from-port="2" to-layer="1483" to-port="0"/>
		<edge from-layer="1482" from-port="0" to-layer="1483" to-port="1"/>
		<edge from-layer="1477" from-port="4" to-layer="1484" to-port="0"/>
		<edge from-layer="1483" from-port="2" to-layer="1484" to-port="1"/>
		<edge from-layer="1484" from-port="2" to-layer="1485" to-port="0"/>
		<edge from-layer="1464" from-port="0" to-layer="1485" to-port="1"/>
		<edge from-layer="1465" from-port="0" to-layer="1485" to-port="2"/>
		<edge from-layer="1466" from-port="0" to-layer="1485" to-port="3"/>
		<edge from-layer="1467" from-port="0" to-layer="1485" to-port="4"/>
		<edge from-layer="1486" from-port="0" to-layer="1487" to-port="0"/>
		<edge from-layer="1487" from-port="1" to-layer="1489" to-port="0"/>
		<edge from-layer="1488" from-port="0" to-layer="1489" to-port="1"/>
		<edge from-layer="1489" from-port="2" to-layer="1491" to-port="0"/>
		<edge from-layer="1490" from-port="0" to-layer="1491" to-port="1"/>
		<edge from-layer="1485" from-port="5" to-layer="1492" to-port="0"/>
		<edge from-layer="1491" from-port="2" to-layer="1492" to-port="1"/>
		<edge from-layer="1492" from-port="2" to-layer="1493" to-port="0"/>
		<edge from-layer="1460" from-port="0" to-layer="1493" to-port="1"/>
		<edge from-layer="1461" from-port="0" to-layer="1493" to-port="2"/>
		<edge from-layer="1462" from-port="0" to-layer="1493" to-port="3"/>
		<edge from-layer="1463" from-port="0" to-layer="1493" to-port="4"/>
		<edge from-layer="1493" from-port="5" to-layer="1494" to-port="0"/>
		<edge from-layer="1459" from-port="0" to-layer="1494" to-port="1"/>
		<edge from-layer="1494" from-port="2" to-layer="1496" to-port="0"/>
		<edge from-layer="1495" from-port="0" to-layer="1496" to-port="1"/>
		<edge from-layer="1473" from-port="5" to-layer="1509" to-port="0"/>
		<edge from-layer="1506" from-port="0" to-layer="1509" to-port="1"/>
		<edge from-layer="1507" from-port="0" to-layer="1509" to-port="2"/>
		<edge from-layer="1508" from-port="0" to-layer="1509" to-port="3"/>
		<edge from-layer="1510" from-port="0" to-layer="1511" to-port="0"/>
		<edge from-layer="1511" from-port="1" to-layer="1513" to-port="0"/>
		<edge from-layer="1512" from-port="0" to-layer="1513" to-port="1"/>
		<edge from-layer="1513" from-port="2" to-layer="1515" to-port="0"/>
		<edge from-layer="1514" from-port="0" to-layer="1515" to-port="1"/>
		<edge from-layer="1509" from-port="4" to-layer="1516" to-port="0"/>
		<edge from-layer="1515" from-port="2" to-layer="1516" to-port="1"/>
		<edge from-layer="1516" from-port="2" to-layer="1517" to-port="0"/>
		<edge from-layer="1502" from-port="0" to-layer="1517" to-port="1"/>
		<edge from-layer="1503" from-port="0" to-layer="1517" to-port="2"/>
		<edge from-layer="1504" from-port="0" to-layer="1517" to-port="3"/>
		<edge from-layer="1505" from-port="0" to-layer="1517" to-port="4"/>
		<edge from-layer="1517" from-port="5" to-layer="1518" to-port="0"/>
		<edge from-layer="1501" from-port="0" to-layer="1518" to-port="1"/>
		<edge from-layer="1518" from-port="2" to-layer="1519" to-port="0"/>
		<edge from-layer="1497" from-port="0" to-layer="1519" to-port="1"/>
		<edge from-layer="1498" from-port="0" to-layer="1519" to-port="2"/>
		<edge from-layer="1499" from-port="0" to-layer="1519" to-port="3"/>
		<edge from-layer="1500" from-port="0" to-layer="1519" to-port="4"/>
		<edge from-layer="1520" from-port="0" to-layer="1521" to-port="0"/>
		<edge from-layer="1521" from-port="1" to-layer="1523" to-port="0"/>
		<edge from-layer="1522" from-port="0" to-layer="1523" to-port="1"/>
		<edge from-layer="1523" from-port="2" to-layer="1525" to-port="0"/>
		<edge from-layer="1524" from-port="0" to-layer="1525" to-port="1"/>
		<edge from-layer="1519" from-port="5" to-layer="1526" to-port="0"/>
		<edge from-layer="1525" from-port="2" to-layer="1526" to-port="1"/>
		<edge from-layer="1472" from-port="1" to-layer="1530" to-port="0"/>
		<edge from-layer="1527" from-port="0" to-layer="1530" to-port="1"/>
		<edge from-layer="1528" from-port="0" to-layer="1530" to-port="2"/>
		<edge from-layer="1529" from-port="0" to-layer="1530" to-port="3"/>
		<edge from-layer="1496" from-port="2" to-layer="1531" to-port="0"/>
		<edge from-layer="1526" from-port="2" to-layer="1531" to-port="1"/>
		<edge from-layer="1530" from-port="4" to-layer="1531" to-port="2"/>
		<edge from-layer="1227" from-port="1" to-layer="1534" to-port="0"/>
		<edge from-layer="1532" from-port="0" to-layer="1534" to-port="1"/>
		<edge from-layer="1533" from-port="0" to-layer="1534" to-port="2"/>
		<edge from-layer="1534" from-port="3" to-layer="1537" to-port="0"/>
		<edge from-layer="1535" from-port="0" to-layer="1537" to-port="1"/>
		<edge from-layer="1536" from-port="0" to-layer="1537" to-port="2"/>
		<edge from-layer="1531" from-port="3" to-layer="1538" to-port="0"/>
		<edge from-layer="1537" from-port="3" to-layer="1538" to-port="1"/>
		<edge from-layer="1377" from-port="2" to-layer="1552" to-port="0"/>
		<edge from-layer="1552" from-port="1" to-layer="1553" to-port="0"/>
		<edge from-layer="1548" from-port="0" to-layer="1553" to-port="1"/>
		<edge from-layer="1549" from-port="0" to-layer="1553" to-port="2"/>
		<edge from-layer="1550" from-port="0" to-layer="1553" to-port="3"/>
		<edge from-layer="1551" from-port="0" to-layer="1553" to-port="4"/>
		<edge from-layer="1553" from-port="5" to-layer="1557" to-port="0"/>
		<edge from-layer="1554" from-port="0" to-layer="1557" to-port="1"/>
		<edge from-layer="1555" from-port="0" to-layer="1557" to-port="2"/>
		<edge from-layer="1556" from-port="0" to-layer="1557" to-port="3"/>
		<edge from-layer="1558" from-port="0" to-layer="1559" to-port="0"/>
		<edge from-layer="1559" from-port="1" to-layer="1561" to-port="0"/>
		<edge from-layer="1560" from-port="0" to-layer="1561" to-port="1"/>
		<edge from-layer="1561" from-port="2" to-layer="1563" to-port="0"/>
		<edge from-layer="1562" from-port="0" to-layer="1563" to-port="1"/>
		<edge from-layer="1557" from-port="4" to-layer="1564" to-port="0"/>
		<edge from-layer="1563" from-port="2" to-layer="1564" to-port="1"/>
		<edge from-layer="1564" from-port="2" to-layer="1565" to-port="0"/>
		<edge from-layer="1544" from-port="0" to-layer="1565" to-port="1"/>
		<edge from-layer="1545" from-port="0" to-layer="1565" to-port="2"/>
		<edge from-layer="1546" from-port="0" to-layer="1565" to-port="3"/>
		<edge from-layer="1547" from-port="0" to-layer="1565" to-port="4"/>
		<edge from-layer="1566" from-port="0" to-layer="1567" to-port="0"/>
		<edge from-layer="1567" from-port="1" to-layer="1569" to-port="0"/>
		<edge from-layer="1568" from-port="0" to-layer="1569" to-port="1"/>
		<edge from-layer="1569" from-port="2" to-layer="1571" to-port="0"/>
		<edge from-layer="1570" from-port="0" to-layer="1571" to-port="1"/>
		<edge from-layer="1565" from-port="5" to-layer="1572" to-port="0"/>
		<edge from-layer="1571" from-port="2" to-layer="1572" to-port="1"/>
		<edge from-layer="1572" from-port="2" to-layer="1573" to-port="0"/>
		<edge from-layer="1540" from-port="0" to-layer="1573" to-port="1"/>
		<edge from-layer="1541" from-port="0" to-layer="1573" to-port="2"/>
		<edge from-layer="1542" from-port="0" to-layer="1573" to-port="3"/>
		<edge from-layer="1543" from-port="0" to-layer="1573" to-port="4"/>
		<edge from-layer="1573" from-port="5" to-layer="1574" to-port="0"/>
		<edge from-layer="1539" from-port="0" to-layer="1574" to-port="1"/>
		<edge from-layer="1574" from-port="2" to-layer="1576" to-port="0"/>
		<edge from-layer="1575" from-port="0" to-layer="1576" to-port="1"/>
		<edge from-layer="1553" from-port="5" to-layer="1589" to-port="0"/>
		<edge from-layer="1586" from-port="0" to-layer="1589" to-port="1"/>
		<edge from-layer="1587" from-port="0" to-layer="1589" to-port="2"/>
		<edge from-layer="1588" from-port="0" to-layer="1589" to-port="3"/>
		<edge from-layer="1590" from-port="0" to-layer="1591" to-port="0"/>
		<edge from-layer="1591" from-port="1" to-layer="1593" to-port="0"/>
		<edge from-layer="1592" from-port="0" to-layer="1593" to-port="1"/>
		<edge from-layer="1593" from-port="2" to-layer="1595" to-port="0"/>
		<edge from-layer="1594" from-port="0" to-layer="1595" to-port="1"/>
		<edge from-layer="1589" from-port="4" to-layer="1596" to-port="0"/>
		<edge from-layer="1595" from-port="2" to-layer="1596" to-port="1"/>
		<edge from-layer="1596" from-port="2" to-layer="1597" to-port="0"/>
		<edge from-layer="1582" from-port="0" to-layer="1597" to-port="1"/>
		<edge from-layer="1583" from-port="0" to-layer="1597" to-port="2"/>
		<edge from-layer="1584" from-port="0" to-layer="1597" to-port="3"/>
		<edge from-layer="1585" from-port="0" to-layer="1597" to-port="4"/>
		<edge from-layer="1597" from-port="5" to-layer="1598" to-port="0"/>
		<edge from-layer="1581" from-port="0" to-layer="1598" to-port="1"/>
		<edge from-layer="1598" from-port="2" to-layer="1599" to-port="0"/>
		<edge from-layer="1577" from-port="0" to-layer="1599" to-port="1"/>
		<edge from-layer="1578" from-port="0" to-layer="1599" to-port="2"/>
		<edge from-layer="1579" from-port="0" to-layer="1599" to-port="3"/>
		<edge from-layer="1580" from-port="0" to-layer="1599" to-port="4"/>
		<edge from-layer="1600" from-port="0" to-layer="1601" to-port="0"/>
		<edge from-layer="1601" from-port="1" to-layer="1603" to-port="0"/>
		<edge from-layer="1602" from-port="0" to-layer="1603" to-port="1"/>
		<edge from-layer="1603" from-port="2" to-layer="1605" to-port="0"/>
		<edge from-layer="1604" from-port="0" to-layer="1605" to-port="1"/>
		<edge from-layer="1599" from-port="5" to-layer="1606" to-port="0"/>
		<edge from-layer="1605" from-port="2" to-layer="1606" to-port="1"/>
		<edge from-layer="1552" from-port="1" to-layer="1610" to-port="0"/>
		<edge from-layer="1607" from-port="0" to-layer="1610" to-port="1"/>
		<edge from-layer="1608" from-port="0" to-layer="1610" to-port="2"/>
		<edge from-layer="1609" from-port="0" to-layer="1610" to-port="3"/>
		<edge from-layer="1576" from-port="2" to-layer="1611" to-port="0"/>
		<edge from-layer="1606" from-port="2" to-layer="1611" to-port="1"/>
		<edge from-layer="1610" from-port="4" to-layer="1611" to-port="2"/>
		<edge from-layer="1370" from-port="1" to-layer="1614" to-port="0"/>
		<edge from-layer="1612" from-port="0" to-layer="1614" to-port="1"/>
		<edge from-layer="1613" from-port="0" to-layer="1614" to-port="2"/>
		<edge from-layer="1614" from-port="3" to-layer="1617" to-port="0"/>
		<edge from-layer="1615" from-port="0" to-layer="1617" to-port="1"/>
		<edge from-layer="1616" from-port="0" to-layer="1617" to-port="2"/>
		<edge from-layer="1611" from-port="3" to-layer="1618" to-port="0"/>
		<edge from-layer="1617" from-port="3" to-layer="1618" to-port="1"/>
		<edge from-layer="1458" from-port="2" to-layer="1619" to-port="0"/>
		<edge from-layer="1538" from-port="2" to-layer="1619" to-port="1"/>
		<edge from-layer="1618" from-port="2" to-layer="1619" to-port="2"/>
		<edge from-layer="1619" from-port="3" to-layer="1620" to-port="0"/>
		<edge from-layer="1091" from-port="2" to-layer="1092" to-port="0"/>
		<edge from-layer="1234" from-port="2" to-layer="1235" to-port="0"/>
		<edge from-layer="1377" from-port="2" to-layer="1378" to-port="0"/>
	</edges>
	<meta_data>
		<MO_version value="2022.2.0-7713-af16ea1d79a-releases/2022/2"/>
		<Runtime_version value="2022.2.0-7713-af16ea1d79a-releases/2022/2"/>
		<legacy_path value="True"/>
		<cli_parameters>
			<caffe_parser_path value="DIR"/>
			<compress_fp16 value="False"/>
			<data_type value="float"/>
			<disable_nhwc_to_nchw value="False"/>
			<disable_omitting_optional value="False"/>
			<disable_resnet_optimization value="False"/>
			<disable_weights_compression value="False"/>
			<enable_concat_optimization value="False"/>
			<enable_flattening_nested_params value="False"/>
			<enable_ssd_gluoncv value="False"/>
			<extensions value="DIR"/>
			<framework value="onnx"/>
			<freeze_placeholder_with_value value="{}"/>
			<input_model value="DIR/yolov5m.onnx"/>
			<input_model_is_text value="False"/>
			<k value="DIR/CustomLayersMapping.xml"/>
			<layout value="()"/>
			<layout_values value="{}"/>
			<legacy_mxnet_model value="False"/>
			<log_level value="ERROR"/>
			<mean_scale_values value="{}"/>
			<mean_values value="()"/>
			<model_name value="yolov5m"/>
			<output_dir value="DIR"/>
			<placeholder_data_types value="{}"/>
			<progress value="False"/>
			<remove_memory value="False"/>
			<remove_output_softmax value="False"/>
			<reverse_input_channels value="False"/>
			<save_params_from_nd value="False"/>
			<scale_values value="()"/>
			<silent value="False"/>
			<source_layout value="()"/>
			<static_shape value="False"/>
			<stream_output value="False"/>
			<target_layout value="()"/>
			<transform value=""/>
			<use_legacy_frontend value="False"/>
			<use_new_frontend value="False"/>
			<unset unset_cli_parameters="batch, counts, disable_fusing, finegrain_fusing, input, input_checkpoint, input_meta_graph, input_proto, input_shape, input_symbol, mean_file, mean_file_offsets, nd_prefix_name, output, placeholder_shapes, pretrained_model_name, saved_model_dir, saved_model_tags, scale, tensorboard_logdir, tensorflow_custom_layer_libraries, tensorflow_custom_operations_config_update, tensorflow_object_detection_api_pipeline_config, tensorflow_use_custom_operations_config, transformations_config"/>
		</cli_parameters>
	</meta_data>
	<quantization_parameters>
		<config/>
		<version value="{}"/>
		<cli_params value="{}"/>
	</quantization_parameters>
</net>
